0_dev_notebooks/mlruns/0/fe968ebf770745978cbd8b35fe0092b7/artifacts/20230813_165209_half_trunc/qt/models/qt_model.tflite (tflite, 9784 bytes, 6 tensors)

sequential/dense/MatMul i1 [1, 1024] scale=0.0036437386 zero_point=0
00000000: edea e808 1a0c f7fe 18ee 14ef 0e37 0801
00000010: f028 041e ee1c 0401 0e11 fe1f fdf5 130b
00000020: 210d 39e3 0626 e728 130d f3fe 0df7 07ff
00000030: 1e13 d5e6 045c fd17 0d14 f3fc 15f4 fcdf
00000040: 22ff e203 f343 d528 040a f0f4 1cfe 080c
00000050: 11f4 1cfc f10e e138 e5eb 0a1f 0241 0d1a
00000060: 0bed 1320 0610 f973 f9f6 243c e810 170f
00000070: fff2 04e3 16e9 2115 fd01 0f12 e11b 1f06
00000080: 12eb f408 f31a efd8 f7fc ef00 30f0 24f5
00000090: 4e43 2107 1935 dd1f 06fc 51e4 ef02 1208
000000a0: 1a2c 04f4 e301 f236 00fd e301 0a1a 05e7
000000b0: 0016 191b f53a fd19 f108 06f9 fded f2ef
000000c0: f6e5 eb1b ff0a 151d 12dd fd09 ff0c f4ec
000000d0: 1d10 0931 0613 0a4b f803 1100 03e0 1730
000000e0: de07 1620 0fe5 07f4 f014 2122 fc17 040f
000000f0: f427 0f1c 2cf6 143f f0f3 ecec 061c 0b05
-0.06923103 -0.08016225 -0.08744973 0.029149909 0.0947372 0.043724865 -0.03279365 -0.007287477
0.08744973 -0.0655873 0.07287477 -0.061943557 0.05101234 0.20040563 0.029149909 0.0036437386
-0.058299817 0.14574954 0.014574954 0.109312154 -0.0655873 0.10202468 0.014574954 0.0036437386
0.05101234 0.061943557 -0.007287477 0.1129559 -0.010931216 -0.040081125 0.06923103 0.040081125
0.12024337 0.0473686 0.2076931 -0.10566842 0.021862432 0.13846207 -0.091093466 0.14574954
0.06923103 0.0473686 -0.0473686 -0.007287477 0.0473686 -0.03279365 0.02550617 -0.0036437386
0.109312154 0.06923103 -0.15668076 -0.0947372 0.014574954 0.33522394 -0.010931216 0.083805986
0.0473686 0.07287477 -0.0473686 -0.014574954 0.07651851 -0.043724865 -0.014574954 -0.12024337
0.123887114 -0.0036437386 -0.109312154 0.010931216 -0.0473686 0.24413048 -0.15668076 0.14574954
0.014574954 0.036437385 -0.058299817 -0.043724865 0.10202468 -0.007287477 0.029149909 0.043724865
0.061943557 -0.043724865 0.10202468 -0.014574954 -0.054656077 0.05101234 -0.1129559 0.20404936
-0.09838094 -0.07651851 0.036437385 0.1129559 0.007287477 0.236843 0.0473686 0.0947372
0.040081125 -0.06923103 0.06923103 0.116599634 0.021862432 0.058299817 -0.02550617 0.41902992
-0.02550617 -0.036437385 0.1311746 0.21862431 -0.08744973 0.058299817 0.083805986 0.054656077
-0.0036437386 -0.05101234 0.014574954 -0.10566842 0.08016225 -0.083805986 0.12024337 0.07651851
-0.010931216 0.0036437386 0.054656077 0.0655873 -0.1129559 0.09838094 0.1129559 0.021862432
0.0655873 -0.07651851 -0.043724865 0.029149909 -0.0473686 0.0947372 -0.061943557 -0.14574954
-0.03279365 -0.014574954 -0.061943557 0.0 0.17489946 -0.058299817 0.1311746 -0.040081125
0.2842116 0.24413048 0.12024337 0.02550617 0.091093466 0.19311814 -0.12753084 0.1129559
0.021862432 -0.014574954 0.29514283 -0.10202468 -0.061943557 0.007287477 0.0655873 0.029149909
0.0947372 0.1603245 0.014574954 -0.043724865 -0.10566842 0.0036437386 -0.05101234 0.19676188
0.0 -0.010931216 -0.10566842 0.0036437386 0.036437385 0.0947372 0.018218692 -0.091093466
0.0 0.08016225 0.091093466 0.09838094 -0.040081125 0.21133684 -0.010931216 0.091093466
-0.054656077 0.029149909 0.021862432 -0.02550617 -0.010931216 -0.06923103 -0.05101234 -0.061943557
-0.036437385 -0.09838094 -0.07651851 0.09838094 -0.0036437386 0.036437385 0.07651851 0.10566842
0.0655873 -0.12753084 -0.010931216 0.03279365 -0.0036437386 0.043724865 -0.043724865 -0.07287477
0.10566842 0.058299817 0.03279365 0.1785432 0.021862432 0.06923103 0.036437385 0.27328038
-0.029149909 0.010931216 0.061943557 0.0 0.010931216 -0.116599634 0.083805986 0.17489946
-0.123887114 0.02550617 0.08016225 0.116599634 0.054656077 -0.09838094 0.02550617 -0.043724865
-0.058299817 0.07287477 0.12024337 0.123887114 -0.014574954 0.083805986 0.014574954 0.054656077
-0.043724865 0.1421058 0.054656077 0.10202468 0.1603245 -0.036437385 0.07287477 0.22955553
-0.058299817 -0.0473686 -0.07287477 -0.07287477 0.021862432 0.10202468 0.040081125 0.018218692

sequential/conv2d_4/Conv2D i1 [16, 3, 3, 8]
00000000: f42a 3124 2999 5814 11ef 1501 0435 2620
00000010: 1009 2abd c103 d92f cdef e6ef 0a23 4ed9
00000020: 0aee cf28 00e6 3ce8 2c81 36e5 1ac2 b801
00000030: 25c5 da12 f5f4 37ef 9b2e 07ea e6f3 53c5
00000040: ad21 ecf7 a6e8 05fe b91f 032a 00e6 2dcb
00000050: c606 8421 fbf4 3e44 c713 be22 e717 26ef
00000060: 5002 b0eb 27b1 0d03 39a9 c5cb 4397 e524
00000070: 4844 4121 fbed 0c13 4a0c efee cc7f 10ee
00000080: bbd3 ed3d 0743 bb5c f467 43c1 c40c e4c9
00000090: 21f6 0044 06d0 0e22 c24e 09a7 3c9e 5022
000000a0: f70c dc07 307f 5cf5 dbcf c402 33fc 0518
000000b0: 0c43 aae4 dc27 1400 05f5 f1d8 0802 5312
000000c0: 3336 ae2e 19da 0834 0e9f 15e3 f31c 1b4f
000000d0: 11b9 d3cd cccb 12cb eb1c 0bf8 2a09 c3f8
000000e0: b503 e5fd 11fe 0643 d63c 2e1f b614 12ee
000000f0: f2c9 1400 e316 ce22 17fa 0d26 03ee 1d20
-12 42 49 36 41 -103 88 20
17 -17 21 1 4 53 38 32
16 9 42 -67 -63 3 -39 47
-51 -17 -26 -17 10 35 78 -39
10 -18 -49 40 0 -26 60 -24
44 -127 54 -27 26 -62 -72 1
37 -59 -38 18 -11 -12 55 -17
-101 46 7 -22 -26 -13 83 -59
-83 33 -20 -9 -90 -24 5 -2
-71 31 3 42 0 -26 45 -53
-58 6 -124 33 -5 -12 62 68
-57 19 -66 34 -25 23 38 -17
80 2 -80 -21 39 -79 13 3
57 -87 -59 -53 67 -105 -27 36
72 68 65 33 -5 -19 12 19
74 12 -17 -18 -52 127 16 -18
-69 -45 -19 61 7 67 -69 92
-12 103 67 -63 -60 12 -28 -55
33 -10 0 68 6 -48 14 34
-62 78 9 -89 60 -98 80 34
-9 12 -36 7 48 127 92 -11
-37 -49 -60 2 51 -4 5 24
12 67 -86 -28 -36 39 20 0
5 -11 -15 -40 8 2 83 18
51 54 -82 46 25 -38 8 52
14 -97 21 -29 -13 28 27 79
17 -71 -45 -51 -52 -53 18 -53
-21 28 11 -8 42 9 -61 -8
-75 3 -27 -3 17 -2 6 67
-42 60 46 31 -74 20 18 -18
-14 -55 20 0 -29 22 -50 34
23 -6 13 38 3 -18 29 32

sequential/conv2d_3/Conv2D i1 [8, 3, 3, 8]
00000000: b937 e4e5 d9d7 f133 04df d3cc 0bc5 d93a
00000010: c1dc 0bee 06ce 1bcb ca1e fb2e c9fc 2a23
00000020: f00f e8d7 2a0d 21e1 a7b1 e00a 012f e826
00000030: cf4b 27ec f3f9 30e0 810f 2268 3a3d e6b4
00000040: 0201 cbe3 504e 2329 10ed 1aef e6dc 08f7
00000050: 4cf9 f007 cdcb d1de b9e3 40e9 0b0c 24ef
00000060: 1be1 38b9 1ed3 0edf 0629 d203 efec bce1
00000070: 1ca8 4a0b 6146 3ef6 4617 fbe5 1904 fa0e
00000080: edfb ef81 c6d2 c898 20ce 3309 f4e2 fd0b
00000090: 5bf4 dbfd 292c f645 4229 ea1d 3ff4 0558
000000a0: 2469 ce40 fe59 203b 50cd d6bc 0b03 ef48
000000b0: 3f17 c7ca 19c4 0ee1 6c7f ea44 c2dd e446
000000c0: f0ff d4cf f508 eecb e24c fce4 15e5 e8cc
000000d0: c0db cda8 afff cefe b9e8 e706 0e46 f112
000000e0: b8a6 d8b1 1222 3915 d2d5 dbc8 10ba e200
000000f0: 8200 0e77 f8fa 1912 ac81 0834 2ffc 12f6
-71 55 -28 -27 -39 -41 -15 51
4 -33 -45 -52 11 -59 -39 58
-63 -36 11 -18 6 -50 27 -53
-54 30 -5 46 -55 -4 42 35
-16 15 -24 -41 42 13 33 -31
-89 -79 -32 10 1 47 -24 38
-49 75 39 -20 -13 -7 48 -32
-127 15 34 104 58 61 -26 -76
2 1 -53 -29 80 78 35 41
16 -19 26 -17 -26 -36 8 -9
76 -7 -16 7 -51 -53 -47 -34
-71 -29 64 -23 11 12 36 -17
27 -31 56 -71 30 -45 14 -33
6 41 -46 3 -17 -20 -68 -31
28 -88 74 11 97 70 62 -10
70 23 -5 -27 25 4 -6 14
-19 -5 -17 -127 -58 -46 -56 -104
32 -50 51 9 -12 -30 -3 11
91 -12 -37 -3 41 44 -10 69
66 41 -22 29 63 -12 5 88
36 105 -50 64 -2 89 32 59
80 -51 -42 -68 11 3 -17 72
63 23 -57 -54 25 -60 14 -31
108 127 -22 68 -62 -35 -28 70
-16 -1 -44 -49 -11 8 -18 -53
-30 76 -4 -28 21 -27 -24 -52
-64 -37 -51 -88 -81 -1 -50 -2
-71 -24 -25 6 14 70 -15 18
-72 -90 -40 -79 18 34 57 21
-46 -43 -37 -56 16 -70 -30 0
-126 0 14 119 -8 -6 25 18
-84 -127 8 52 47 -4 18 -10

sequential/conv2d_2/Conv2D i1 [8, 3, 3, 4]
00000000: 18e6 fc57 1708 cd11 2fed 22fc 1420 b429
00000010: 9f19 8a0e e5f2 dc32 42d2 bcfb 1901 8106
00000020: 9dd1 ce49 2909 3434 5bd1 f634 0eba f512
00000030: f2f9 f516 1e18 f6e7 24dc 0aba 05e4 c844
00000040: bd2a e581 c910 dab4 35e1 effa e2c4 392c
00000050: fc0b 1911 212c acc8 c6ea 67f7 0ffd 71f6
00000060: 13cb 2c81 9a0b 11ff 0cf8 4c03 349d 5821
00000070: 07e3 f4f7 3c87 6406 14c2 1abd 3681 fb0a
00000080: 3d8d 19f4 4ca1 f3c5 40d9 adec 41db 0e22
00000090: e030 1642 d614 47e4 e40d e938 20e4 dee7
000000a0: 051e 4745 812e 1a3a a1de bade 3a8e 4419
000000b0: 2eb0 494c f135 ef27 33cf 2fde 2034 3b05
000000c0: 15ef c511 10ba 4240 0881 d6e1 450c 3b2c
000000d0: 1ca3 4445 5ab1 3e05 3901 fcda bf4a 3734
000000e0: 147f 1efa 722a 04e1 b0dd 6f48 9f1e 0b57
000000f0: 5e8a 2569 d28e 5ae2 d3b0 66d6 d2b7 4256
24 -26 -4 87 23 8 -51 17
47 -19 34 -4 20 32 -76 41
-97 25 -118 14 -27 -14 -36 50
66 -46 -68 -5 25 1 -127 6
-99 -47 -50 73 41 9 52 52
91 -47 -10 52 14 -70 -11 18
-14 -7 -11 22 30 24 -10 -25
36 -36 10 -70 5 -28 -56 68
-67 42 -27 -127 -55 16 -38 -76
53 -31 -17 -6 -30 -60 57 44
-4 11 25 17 33 44 -84 -56
-58 -22 103 -9 15 -3 113 -10
19 -53 44 -127 -102 11 17 -1
12 -8 76 3 52 -99 88 33
7 -29 -12 -9 60 -121 100 6
20 -62 26 -67 54 -127 -5 10
61 -115 25 -12 76 -95 -13 -59
64 -39 -83 -20 65 -37 14 34
-32 48 22 66 -42 20 71 -28
-28 13 -23 56 32 -28 -34 -25
5 30 71 69 -127 46 26 58
-95 -34 -70 -34 58 -114 68 25
46 -80 73 76 -15 53 -17 39
51 -49 47 -34 32 52 59 5
21 -17 -59 17 16 -70 66 64
8 -127 -42 -31 69 12 59 44
28 -93 68 69 90 -79 62 5
57 1 -4 -38 -65 74 55 52
20 127 30 -6 114 42 4 -31
-80 -35 111 72 -97 30 11 87
94 -118 37 105 -46 -114 90 -30
-45 -80 102 -42 -46 -73 66 86

sequential/conv2d_1/Conv2D i1 [4, 3, 3, 2]
00000000: 085e eab6 a9b6 12a5 7f7a c50b ba23 578d
00000010: ce30 c6de f981 3a0e ec35 9cca f8e8 ac1e
00000020: b6f6 0c30 d5c9 6e81 bccb cce9 22a0 6d51
00000030: 3415 03c8 695a 4d04 9d66 5881 4165 368d
00000040: 8e81 33ca e1f6 7dd6
8 94 -22 -74 -87 -74 18 -91
127 122 -59 11 -70 35 87 -115
-50 48 -58 -34 -7 -127 58 14
-20 53 -100 -54 -8 -24 -84 30
-74 -10 12 48 -43 -55 110 -127
-68 -53 -52 -23 34 -96 109 81
52 21 3 -56 105 90 77 4
-99 102 88 -127 65 101 54 -115
-114 -127 51 -54 -31 -10 125 -42

sequential/conv2d/Conv2D i1 [2, 3, 3, 1]
00000000: 0171 e0f8 125e f681 f4c3 92a5 7df3 14fc
00000010: 307f
1 113 -32 -8 18 94 -10 -127
-12 -61 -110 -91 125 -13 20 -4
48 127
