0_dev_notebooks/train_outputs/20230813_161928_quarter_increase_input/qt/models/qt_model.tflite (tflite, 9072 bytes, 6 tensors)

sequential/dense/MatMul i1 [1, 1024] scale=0.0034233616 zero_point=0
00000000: 08d8 070f e707 f9ef ebd0 2ce2 fdcb 0cf8
00000010: bb41 162a 023c 222a f912 206d 0903 fbf0
00000020: d97b 25e6 d331 fb74 2723 fa61 0bf9 08f8
00000030: ef79 ec0a c22c 0446 0efb ea28 1104 24dc
00000040: 0f1b f30b c4f9 ed7d 1a2a c9f9 1f26 cb13
00000050: 003d 25fa ed11 eb17 f11e f8fe 03d0 e70e
00000060: ffe1 3e0b 1617 19f3 f90f 161a dffb eef9
00000070: 01fe f113 f731 0b34 0400 1ffc 2b37 0cf0
00000080: 7016 f01d b4e7 291e fffa 350a 5f48 f3fe
00000090: 136f 2425 3704 e733 0e2d 44fe efbd f914
000000a0: 1cee 12fa 1600 ec13 f41a ee4b 130a 7eed
000000b0: 4430 1bf1 1912 e8f6 dc0a fce2 cdd2 0003
000000c0: ce0c dd22 f904 002e 0c22 f7f8 0c05 fdfa
000000d0: f22b e83b e80c 4116 0cf4 14fa 2a34 fe02
000000e0: f618 062d 061e 00d9 0107 07eb f105 e7ff
000000f0: f50a 0d02 3217 e534 f30f fff9 0e2b 0dfc
0.027386893 -0.13693446 0.023963531 0.051350422 -0.08558404 0.023963531 -0.023963531 -0.05819715
-0.07189059 -0.16432136 0.15062791 -0.102700844 -0.010270085 -0.18143816 0.04108034 -0.027386893
-0.23621196 0.2225185 0.075313956 0.14378119 0.006846723 0.20540169 0.1163943 0.14378119
-0.023963531 0.061620507 0.10954757 0.3731464 0.030810254 0.010270085 -0.017116807 -0.054773785
-0.1335111 0.42107347 0.12666439 -0.0890074 -0.15405127 0.16774471 -0.017116807 0.39710996
0.1335111 0.11981765 -0.02054017 0.33206606 0.037656978 -0.023963531 0.027386893 -0.027386893
-0.05819715 0.41422674 -0.06846723 0.034233615 -0.21224841 0.15062791 0.013693446 0.2396353
0.047927063 -0.017116807 -0.075313956 0.13693446 0.05819715 0.013693446 0.123241015 -0.123241015
0.051350422 0.09243076 -0.0445037 0.037656978 -0.20540169 -0.023963531 -0.06504387 0.4279202
0.0890074 0.14378119 -0.18828489 -0.023963531 0.10612421 0.13008773 -0.18143816 0.06504387
0.0 0.20882505 0.12666439 -0.02054017 -0.06504387 0.05819715 -0.07189059 0.07873732
-0.051350422 0.102700844 -0.027386893 -0.006846723 0.010270085 -0.16432136 -0.08558404 0.047927063
-0.0034233616 -0.10612421 0.21224841 0.037656978 0.075313956 0.07873732 0.08558404 -0.0445037
-0.023963531 0.051350422 0.075313956 0.0890074 -0.11297093 -0.017116807 -0.061620507 -0.023963531
0.0034233616 -0.006846723 -0.051350422 0.06504387 -0.030810254 0.16774471 0.037656978 0.1780148
0.013693446 0.0 0.10612421 -0.013693446 0.14720455 0.18828489 0.04108034 -0.054773785
0.3834165 0.075313956 -0.054773785 0.09927749 -0.26017547 -0.08558404 0.14035782 0.102700844
-0.0034233616 -0.02054017 0.18143816 0.034233615 0.32521936 0.24648203 -0.0445037 -0.006846723
0.06504387 0.37999314 0.123241015 0.12666439 0.18828489 0.013693446 -0.08558404 0.17459144
0.047927063 0.15405127 0.2327886 -0.006846723 -0.05819715 -0.22936523 -0.023963531 0.06846723
0.095854126 -0.061620507 0.061620507 -0.02054017 0.075313956 0.0 -0.06846723 0.06504387
-0.04108034 0.0890074 -0.061620507 0.2567521 0.06504387 0.034233615 0.43134356 -0.06504387
0.2327886 0.16432136 0.09243076 -0.051350422 0.08558404 0.061620507 -0.08216068 -0.034233615
-0.123241015 0.034233615 -0.013693446 -0.102700844 -0.17459144 -0.15747464 0.0 0.010270085
-0.17116807 0.04108034 -0.11981765 0.1163943 -0.023963531 0.013693446 0.0 0.15747464
0.04108034 0.1163943 -0.030810254 -0.027386893 0.04108034 0.017116807 -0.010270085 -0.02054017
-0.047927063 0.14720455 -0.08216068 0.20197833 -0.08216068 0.04108034 0.2225185 0.075313956
0.04108034 -0.04108034 0.06846723 -0.02054017 0.14378119 0.1780148 -0.006846723 0.006846723
-0.034233615 0.08216068 0.02054017 0.15405127 0.02054017 0.102700844 0.0 -0.1335111
0.0034233616 0.023963531 0.023963531 -0.07189059 -0.051350422 0.017116807 -0.08558404 -0.0034233616
-0.037656978 0.034233615 0.0445037 0.006846723 0.17116807 0.07873732 -0.09243076 0.1780148
-0.0445037 0.051350422 -0.0034233616 -0.023963531 0.047927063 0.14720455 0.0445037 -0.013693446

sequential/conv2d_4/Conv2D i1 [16, 3, 3, 8]
00000000: 154f cd14 01d9 20f0 ec81 08ec 8ffb 37f4
00000010: ebf5 02dc def9 d502 fef5 ef0f 0e05 34ff
00000020: 31db 0419 f6a7 27e8 28e6 1ae8 3ae3 b914
00000030: 0903 d528 00e9 082d f5f2 0c18 e912 0db6
00000040: f236 c429 f1df b9f7 cd12 fb29 2bd3 afde
00000050: a5cb b90d c00d 09f3 c9bb bd2c c23c 0086
00000060: 49d1 f3d9 25c7 ec11 3ff5 0d06 0fd0 1122
00000070: 0c50 204b 06f9 3b2a cdc2 8c92 c535 b4f7
00000080: 81e5 9a13 e222 a540 0606 0ebb aaa8 f9c8
00000090: f0f7 ede6 fac0 f418 ae36 18a9 16cf 1144
000000a0: d6c0 28f5 0c4d 04e8 e8ea 19be 27a0 b90e
000000b0: 2df7 38cc b408 def4 ffc7 f2e0 fad5 43e7
000000c0: 6339 c72c 1803 0318 27eb 16ac 26fe 2a7f
000000d0: e7bb a9ed c0a1 5bf5 d0f8 e905 131b d6bf
000000e0: e602 c609 2930 1f00 1d26 3842 a003 0ad7
000000f0: f6b9 bcf2 17ef cae9 2c0b ac1e 4206 3c1c
21 79 -51 20 1 -39 32 -16
-20 -127 8 -20 -113 -5 55 -12
-21 -11 2 -36 -34 -7 -43 2
-2 -11 -17 15 14 5 52 -1
49 -37 4 25 -10 -89 39 -24
40 -26 26 -24 58 -29 -71 20
9 3 -43 40 0 -23 8 45
-11 -14 12 24 -23 18 13 -74
-14 54 -60 41 -15 -33 -71 -9
-51 18 -5 41 43 -45 -81 -34
-91 -53 -71 13 -64 13 9 -13
-55 -69 -67 44 -62 60 0 -122
73 -47 -13 -39 37 -57 -20 17
63 -11 13 6 15 -48 17 34
12 80 32 75 6 -7 59 42
-51 -62 -116 -110 -59 53 -76 -9
-127 -27 -102 19 -30 34 -91 64
6 6 14 -69 -86 -88 -7 -56
-16 -9 -19 -26 -6 -64 -12 24
-82 54 24 -87 22 -49 17 68
-42 -64 40 -11 12 77 4 -24
-24 -22 25 -66 39 -96 -71 14
45 -9 56 -52 -76 8 -34 -12
-1 -57 -14 -32 -6 -43 67 -25
99 57 -57 44 24 3 3 24
39 -21 22 -84 38 -2 42 127
-25 -69 -87 -19 -64 -95 91 -11
-48 -8 -23 5 19 27 -42 -65
-26 2 -58 9 41 48 31 0
29 38 56 66 -96 3 10 -41
-10 -71 -68 -14 23 -17 -54 -23
44 11 -84 30 66 6 60 28

sequential/conv2d_3/Conv2D i1 [8, 3, 3, 4]
00000000: e039 d0b3 9dc1 e931 9f8b c8c0 fcd2 e91f
00000010: af81 f3fb e2c8 2ff6 0c4e 0c3b cb0c 562e
00000020: 1f0b 0303 26bc ff22 b281 e0f3 74d0 31c0
00000030: fbb2 b99b d80b 79d7 ebe5 2732 bcf7 6c3a
00000040: 50bc e8d7 036c ab4c f790 b7aa 0d23 d0ea
00000050: d9cc d981 10f8 0d3d cf20 ef34 b839 2829
00000060: 24a2 d6c1 3938 0a2b 1afb fbe6 03ec f20a
00000070: 0f5b dc61 a9b8 9781 0b45 613e 4209 1bf7
00000080: 06e5 dabd ef7f 457b 0b36 3225 14cf fced
00000090: edb9 92d0 bbf2 aab8 23b9 bfe4 980b dbbe
000000a0: da81 1c18 0e2f 5e10 cce0 1665 d70c 420d
000000b0: 7058 384f c7e9 1721 50fe 3417 382d 08e0
000000c0: 00cf ed07 b3b8 ba95 1b81 a398 3822 f505
000000d0: cb1f 3441 9105 1116 610f 7e13 c75e da0e
000000e0: 1b13 c081 12ca 01fd f452 2fbe fdd9 b39d
000000f0: 3803 2a57 13ee bab1 8b1f 0cd1 fffc eb88
-32 57 -48 -77 -99 -63 -23 49
-97 -117 -56 -64 -4 -46 -23 31
-81 -127 -13 -5 -30 -56 47 -10
12 78 12 59 -53 12 86 46
31 11 3 3 38 -68 -1 34
-78 -127 -32 -13 116 -48 49 -64
-5 -78 -71 -101 -40 11 121 -41
-21 -27 39 50 -68 -9 108 58
80 -68 -24 -41 3 108 -85 76
-9 -112 -73 -86 13 35 -48 -22
-39 -52 -39 -127 16 -8 13 61
-49 32 -17 52 -72 57 40 41
36 -94 -42 -63 57 56 10 43
26 -5 -5 -26 3 -20 -14 10
15 91 -36 97 -87 -72 -105 -127
11 69 97 62 66 9 27 -9
6 -27 -38 -67 -17 127 69 123
11 54 50 37 20 -49 -4 -19
-19 -71 -110 -48 -69 -14 -86 -72
35 -71 -65 -28 -104 11 -37 -66
-38 -127 28 24 14 47 94 16
-52 -32 22 101 -41 12 66 13
112 88 56 79 -57 -23 23 33
80 -2 52 23 56 45 8 -32
0 -49 -19 7 -77 -72 -70 -107
27 -127 -93 -104 56 34 -11 5
-53 31 52 65 -111 5 17 22
97 15 126 19 -57 94 -38 14
27 19 -64 -127 18 -54 1 -3
-12 82 47 -66 -3 -39 -77 -99
56 3 42 87 19 -18 -70 -79
-117 31 12 -47 -1 -4 -21 -120

sequential/conv2d_2/Conv2D i1 [4, 3, 3, 2]
00000000: e423 c67f 5b37 cfe1 c737 b82e ee12 cea0
00000010: e63a e6fe fb3a 7fdf 0c5b e04b e2e2 850d
00000020: eae4 cc0f 011d e4f6 2208 81d7 8222 d448
00000030: a10d b447 e868 10c5 abbc 6832 180f e149
00000040: 7f0b 8602 be4d 4a70
-28 35 -58 127 91 55 -49 -31
-57 55 -72 46 -18 18 -50 -96
-26 58 -26 -2 -5 58 127 -33
12 91 -32 75 -30 -30 -123 13
-22 -28 -52 15 1 29 -28 -10
34 8 -127 -41 -126 34 -44 72
-95 13 -76 71 -24 104 16 -59
-85 -68 104 50 24 15 -31 73
127 11 -122 2 -66 77 74 112

sequential/conv2d_1/Conv2D i1 [2, 3, 3, 2]
00000000: fbe8 3bec a877 dceb c581 b2ef 1c17 e50c
00000010: 640b e61b fddb dc87 ba5c 3059 5998 1a27
00000020: 2f50 811b
-5 -24 59 -20 -88 119 -36 -21
-59 -127 -78 -17 28 23 -27 12
100 11 -26 27 -3 -37 -36 -121
-70 92 48 89 89 -104 26 39
47 80 -127 27

sequential/conv2d/Conv2D i1 [2, 3, 3, 1]
00000000: 0175 dff8 1568 f881 fbd2 9aa3 7fee 0900
00000010: 2a72
1 117 -33 -8 21 104 -8 -127
-5 -46 -102 -93 127 -18 9 0
42 114
