0_dev_notebooks/train_outputs/20230813_154042_max_doubled/qt/models/qt_model.tflite (tflite, 37608 bytes, 6 tensors)

sequential/dense/MatMul i1 [1, 4096] scale=0.0019009706 zero_point=0
000000 12 f5 0a 0b 10 0c 04 f6 fb f0 06 f9 11 04 04 0e
       0.03421747 -0.020910677 0.019009706 0.020910677 0.03041553 0.022811648 0.0076038823 -0.019009706 -0.009504853 -0.03041553 0.011405824 -0.013306794 0.0323165 0.0076038823 0.0076038823 0.026613588
000010 eb 1b ff 11 ee 0d 0a fb ff 13 09 2c fc 16 08 06
       -0.039920382 0.051326204 -0.0019009706 0.0323165 -0.03421747 0.024712618 0.019009706 -0.009504853 -0.0019009706 0.03611844 0.017108735 0.08364271 -0.0076038823 0.041821353 0.015207765 0.011405824
000020 59 26 02 fd f6 2b fb 09 0e 06 fd 03 14 fb 0a fb
       0.16918638 0.07223688 0.0038019412 -0.005702912 -0.019009706 0.081741735 -0.009504853 0.017108735 0.026613588 0.011405824 -0.005702912 0.005702912 0.03801941 -0.009504853 0.019009706 -0.009504853
000030 fd 0b e3 29 08 0f 02 09 0a ff 0a 15 10 fb f1 e9
       -0.005702912 0.020910677 -0.055128146 0.07793979 0.015207765 0.028514558 0.0038019412 0.017108735 0.019009706 -0.0019009706 0.019009706 0.039920382 0.03041553 -0.009504853 -0.028514558 -0.043722324
000040 08 e8 f8 f4 03 f8 ee 11 0a 0b 01 fd 0c eb fe 17
       0.015207765 -0.045623295 -0.015207765 -0.022811648 0.005702912 -0.015207765 -0.03421747 0.0323165 0.019009706 0.020910677 0.0019009706 -0.005702912 0.022811648 -0.039920382 -0.0038019412 0.043722324
000050 0c 11 0a f7 ee 0b 28 02 08 f6 0e 2e 0a 0a fe 37
       0.022811648 0.0323165 0.019009706 -0.017108735 -0.03421747 0.020910677 0.07603882 0.0038019412 0.015207765 -0.019009706 0.026613588 0.08744465 0.019009706 0.019009706 -0.0038019412 0.10455338
000060 25 f2 0b 16 fe 19 11 f8 ef f7 0c 04 f9 17 ed 04
       0.07033591 -0.026613588 0.020910677 0.041821353 -0.0038019412 0.047524266 0.0323165 -0.015207765 -0.0323165 -0.017108735 0.022811648 0.0076038823 -0.013306794 0.043722324 -0.03611844 0.0076038823
000070 27 e4 f6 1d fc fa 12 f3 ff 04 0e f5 eb fc 0b f5
       0.07413785 -0.053227175 -0.019009706 0.055128146 -0.0076038823 -0.011405824 0.03421747 -0.024712618 -0.0019009706 0.0076038823 0.026613588 -0.020910677 -0.039920382 -0.0076038823 0.020910677 -0.020910677
000080 0a fd f5 0c 1a 04 f8 e3 3a ff 04 0c 1b 03 0b fa
       0.019009706 -0.005702912 -0.020910677 0.022811648 0.049425237 0.0076038823 -0.015207765 -0.055128146 0.11025629 -0.0019009706 0.0076038823 0.022811648 0.051326204 0.005702912 0.020910677 -0.011405824
000090 ff f2 17 10 15 1b eb 0e fd 04 0b 22 f0 f9 18 34
       -0.0019009706 -0.026613588 0.043722324 0.03041553 0.039920382 0.051326204 -0.039920382 0.026613588 -0.005702912 0.0076038823 0.020910677 0.064633 -0.03041553 -0.013306794 0.045623295 0.098850474
0000a0 ea f8 fb 01 11 fe fb 10 f5 08 fa 30 14 17 fe ee
       -0.041821353 -0.015207765 -0.009504853 0.0019009706 0.0323165 -0.0038019412 -0.009504853 0.03041553 -0.020910677 0.015207765 -0.011405824 0.09124659 0.03801941 0.043722324 -0.0038019412 -0.03421747
0000b0 11 fa 1d 07 10 11 fe fe f4 24 1c eb 00 fc f4 03
       0.0323165 -0.011405824 0.055128146 0.013306794 0.03041553 0.0323165 -0.0038019412 -0.0038019412 -0.022811648 0.06843494 0.053227175 -0.039920382 0.0 -0.0076038823 -0.022811648 0.005702912
0000c0 f3 1b fd 0c 22 ef 06 fe 7f f7 ff 08 f5 02 07 f4
       -0.024712618 0.051326204 -0.005702912 0.022811648 0.064633 -0.0323165 0.011405824 -0.0038019412 0.24142326 -0.017108735 -0.0019009706 0.015207765 -0.020910677 0.0038019412 0.013306794 -0.022811648
0000d0 0a f7 fe 1e 0c e1 02 fc 0b fd f7 cb 03 01 1e fd
       0.019009706 -0.017108735 -0.0038019412 0.057029117 0.022811648 -0.058930088 0.0038019412 -0.0076038823 0.020910677 -0.005702912 -0.017108735 -0.100751445 0.005702912 0.0019009706 0.057029117 -0.005702912
0000e0 e0 19 04 fc fe d8 ff fb ee 12 05 fd f7 04 02 e7
       -0.06083106 0.047524266 0.0076038823 -0.0076038823 -0.0038019412 -0.07603882 -0.0019009706 -0.009504853 -0.03421747 0.03421747 0.009504853 -0.005702912 -0.017108735 0.0076038823 0.0038019412 -0.047524266
0000f0 e6 fd 48 e2 0e f8 fb f1 e4 f4 f7 eb 06 08 08 06
       -0.049425237 -0.005702912 0.13686988 -0.057029117 0.026613588 -0.015207765 -0.009504853 -0.028514558 -0.053227175 -0.022811648 -0.017108735 -0.039920382 0.011405824 0.015207765 0.015207765 0.011405824

sequential/conv2d_4/Conv2D i1 [64, 3, 3, 32]
000000 e3 f1 05 d8 41 b7 d2 03 ca 09 13 2d 2b df d1 e4
       -29 -15 5 -40 65 -73 -46 3 -54 9 19 45 43 -33 -47 -28
000010 d2 95 31 0c 12 28 0c d2 3a dc 12 35 12 21 04 18
       -46 -107 49 12 18 40 12 -46 58 -36 18 53 18 33 4 24
000020 20 fc 04 ab eb f5 37 15 1d e5 fa 21 30 14 e5 16
       32 -4 4 -85 -21 -11 55 21 29 -27 -6 33 48 20 -27 22
000030 d7 29 b4 f5 dc 2b f1 dc 32 b7 05 00 f9 f6 e7 24
       -41 41 -76 -11 -36 43 -15 -36 50 -73 5 0 -7 -10 -25 36
000040 bf af 22 2d 1d e2 35 14 04 d3 fe fc 05 f5 f1 44
       -65 -81 34 45 29 -30 53 20 4 -45 -2 -4 5 -11 -15 68
000050 e2 89 17 06 a3 1a fb 16 06 fc f1 b8 be 1f e7 da
       -30 -119 23 6 -93 26 -5 22 6 -4 -15 -72 -66 31 -25 -38
000060 d4 2e 0e 25 c4 3b d9 f5 fe c4 34 eb fc ff 2d e1
       -44 46 14 37 -60 59 -39 -11 -2 -60 52 -21 -4 -1 45 -31
000070 a4 5d ba 19 d3 c8 c1 cf f7 d2 cc 31 bf cb 40 2c
       -92 93 -70 25 -45 -56 -63 -49 -9 -46 -52 49 -65 -53 64 44
000080 19 ea ef ab d7 d9 c1 d0 07 e6 0c 2e 4a 16 2b dc
       25 -22 -17 -85 -41 -39 -63 -48 7 -26 12 46 74 22 43 -36
000090 9a c6 5e 10 c0 8f 08 ae f9 10 cd 37 0f cc f5 b9
       -102 -58 94 16 -64 -113 8 -82 -7 16 -51 55 15 -52 -11 -71
0000a0 c6 fe 9c a0 22 3a bb d7 e2 2a 25 fa b4 06 26 fe
       -58 -2 -100 -96 34 58 -69 -41 -30 42 37 -6 -76 6 38 -2
0000b0 fd e6 3e de 29 07 26 c3 3f 0d 0b 31 34 12 07 4e
       -3 -26 62 -34 41 7 38 -61 63 13 11 49 52 18 7 78
0000c0 11 41 d9 11 da f3 21 25 ea c7 44 17 01 3b 40 43
       17 65 -39 17 -38 -13 33 37 -22 -57 68 23 1 59 64 67
0000d0 06 c3 1e 62 bf 00 31 4b 2c 13 1f ce 1b ff 07 18
       6 -61 30 98 -65 0 49 75 44 19 31 -50 27 -1 7 24
0000e0 1b df 2a d2 d9 e3 cf d0 6b f0 11 cd b8 fa e0 08
       27 -33 42 -46 -39 -29 -49 -48 107 -16 17 -51 -72 -6 -32 8
0000f0 dd 7f e6 f4 ab d2 28 f1 dc e1 0b 1a f0 cb 45 1d
       -35 127 -26 -12 -85 -46 40 -15 -36 -31 11 26 -16 -53 69 29

sequential/conv2d_3/Conv2D i1 [32, 3, 3, 16]
000000 d7 a7 b6 37 cd fc b4 97 10 5a c9 ec 22 c4 c6 43
       -41 -89 -74 55 -51 -4 -76 -105 16 90 -55 -20 34 -60 -58 67
000010 29 52 ac 9a d7 dc d1 39 c5 b1 24 57 35 b8 fb c9
       41 82 -84 -102 -41 -36 -47 57 -59 -79 36 87 53 -72 -5 -55
000020 ec df f6 5d a7 df ff 8a 24 55 a8 91 a5 c3 44 62
       -20 -33 -10 93 -89 -33 -1 -118 36 85 -88 -111 -91 -61 68 98
000030 ab 3f f7 37 95 fc 92 30 ce 47 a1 1b 0b 81 34 11
       -85 63 -9 55 -107 -4 -110 48 -50 71 -95 27 11 -127 52 17
000040 e0 56 4d ba ab a4 51 9f cb 3d e6 37 c9 19 e7 91
       -32 86 77 -70 -85 -92 81 -97 -53 61 -26 55 -55 25 -25 -111
000050 1d 5a b6 32 d0 e0 97 d5 ea 14 f6 19 cb bf d4 46
       29 90 -74 50 -48 -32 -105 -43 -22 20 -10 25 -53 -65 -44 70
000060 47 1e e1 4c e2 12 df 22 d1 fa 8e 8b c9 38 2a c3
       71 30 -31 76 -30 18 -33 34 -47 -6 -114 -117 -55 56 42 -61
000070 d4 11 bf 05 fd f5 36 9a 25 11 b0 47 28 b7 37 a1
       -44 17 -65 5 -3 -11 54 -102 37 17 -80 71 40 -73 55 -95
000080 18 96 95 e8 a5 de 6c 14 03 e0 23 96 dd aa 0f 2a
       24 -106 -107 -24 -91 -34 108 20 3 -32 35 -106 -35 -86 15 42
000090 f4 bd 66 e6 bc e6 e8 26 e4 fa 6c 42 5d 11 1d ae
       -12 -67 102 -26 -68 -26 -24 38 -28 -6 108 66 93 17 29 -82
0000a0 10 b4 fd 48 24 0e ab d4 e7 e5 df bc 30 29 27 36
       16 -76 -3 72 36 14 -85 -44 -25 -27 -33 -68 48 41 39 54
0000b0 4f 0f e2 32 c2 d3 f1 19 19 eb 9a 3a 36 00 15 cb
       79 15 -30 50 -62 -45 -15 25 25 -21 -102 58 54 0 21 -53
0000c0 1a 24 a8 3a 09 57 11 27 d7 18 13 a6 0e 2c 1b 0a
       26 36 -88 58 9 87 17 39 -41 24 19 -90 14 44 27 10
0000d0 58 c7 d6 37 00 ec 72 ff ff 3e f7 00 52 00 29 c6
       88 -57 -42 55 0 -20 114 -1 -1 62 -9 0 82 0 41 -58
0000e0 3c 32 42 e2 e9 ac c6 07 fd 0c c0 d4 b1 2a 1c dc
       60 50 66 -30 -23 -84 -58 7 -3 12 -64 -44 -79 42 28 -36
0000f0 cb 41 fc b1 c2 9e 81 0b de 10 b5 f1 f1 0e aa fa
       -53 65 -4 -79 -62 -98 -127 11 -34 16 -75 -15 -15 14 -86 -6

sequential/conv2d_2/Conv2D i1 [16, 3, 3, 8]
000000 58 27 12 24 fc 2c 1d dc c7 d6 22 ec 2e 07 1c e3
       88 39 18 36 -4 44 29 -36 -57 -42 34 -20 46 7 28 -29
000010 ea fe d2 f7 02 39 46 34 15 ba f4 e4 cd e7 60 26
       -22 -2 -46 -9 2 57 70 52 21 -70 -12 -28 -51 -25 96 38
000020 0f 12 e7 1f fe 81 da 26 1e 14 ee f3 02 12 ba a2
       15 18 -25 31 -2 -127 -38 38 30 20 -18 -13 2 18 -70 -94
000030 0e f8 07 c3 3f c0 72 38 b5 a6 f0 cf 64 ad f3 cc
       14 -8 7 -61 63 -64 114 56 -75 -90 -16 -49 100 -83 -13 -52
000040 c2 d5 fd 25 d3 e9 ec 01 b5 2f 20 c6 ee d6 f5 ef
       -62 -43 -3 37 -45 -23 -20 1 -75 47 32 -58 -18 -42 -11 -17
000050 1d fe a4 08 ca d0 cc 1c c2 1e cc d0 de cb 4f 22
       29 -2 -92 8 -54 -48 -52 28 -62 30 -52 -48 -34 -53 79 34
000060 09 d9 d8 e5 14 8c 07 bc 19 25 c1 33 11 02 16 d8
       9 -39 -40 -27 20 -116 7 -68 25 37 -63 51 17 2 22 -40
000070 da 62 2f 7f 40 bc b6 be c9 38 32 0a 06 3f ed 11
       -38 98 47 127 64 -68 -74 -66 -55 56 50 10 6 63 -19 17
000080 98 1c 04 cf ed 59 2d b2 51 31 fe 05 38 07 1c 2d
       -104 28 4 -49 -19 89 45 -78 81 49 -2 5 56 7 28 45
000090 5d 02 f9 36 09 f5 18 c5 c4 21 13 06 4d f5 c6 07
       93 2 -7 54 9 -11 24 -59 -60 33 19 6 77 -11 -58 7
0000a0 ac 0d ec 94 e6 54 e7 f3 f4 e1 e8 a2 41 1d 01 02
       -84 13 -20 -108 -26 84 -25 -13 -12 -31 -24 -94 65 29 1 2
0000b0 bb e5 e4 f4 f0 25 0c d2 f8 a5 14 2e 3d f0 35 c1
       -69 -27 -28 -12 -16 37 12 -46 -8 -91 20 46 61 -16 53 -63
0000c0 ff 25 12 4d 2d be 29 ce c0 d1 30 ec f3 82 81 37
       -1 37 18 77 45 -66 41 -50 -64 -47 48 -20 -13 -126 -127 55
0000d0 3f ff 21 0b 28 ce 0f 3d 73 5a f9 ee 55 11 b4 10
       63 -1 33 11 40 -50 15 61 115 90 -7 -18 85 17 -76 16
0000e0 15 de 40 09 32 e6 e6 b3 3e 0d 9f 21 0a 3f eb 74
       21 -34 64 9 50 -26 -26 -77 62 13 -97 33 10 63 -21 116
0000f0 7f ec f2 db 8c fc 17 35 f6 5e 00 f1 ea aa 9e ac
       127 -20 -14 -37 -116 -4 23 53 -10 94 0 -15 -22 -86 -98 -84

sequential/conv2d_1/Conv2D i1 [8, 3, 3, 4]
000000 ad c8 89 d9 2d e0 97 13 81 ca dd d9 c2 df fc b5
       -83 -56 -119 -39 45 -32 -105 19 -127 -54 -35 -39 -62 -33 -4 -75
000010 a8 cc c3 c3 d4 2c bc 58 01 ef e3 dc d2 f4 16 0f
       -88 -52 -61 -61 -44 44 -68 88 1 -17 -29 -36 -46 -12 22 15
000020 24 21 e8 0e db e3 24 00 d2 e4 e7 da fb 34 d0 f6
       36 33 -24 14 -37 -29 36 0 -46 -28 -25 -38 -5 52 -48 -10
000030 36 ee 19 ee 09 fb c3 06 04 2e 30 bb ef e8 0d cf
       54 -18 25 -18 9 -5 -61 6 4 46 48 -69 -17 -24 13 -49
000040 7f 3e 0b d1 3c 0f 27 20 0d 3f ce dd 42 49 5b ec
       127 62 11 -47 60 15 39 32 13 63 -50 -35 66 73 91 -20
000050 6d 46 2c ae b3 bb 30 cf 1f 4b 7f c2 dc ed 41 5a
       109 70 44 -82 -77 -69 48 -49 31 75 127 -62 -36 -19 65 90
000060 4f 02 35 44 3f d9 1b d3 a4 07 3f 2f 3a 92 50 15
       79 2 53 68 63 -39 27 -45 -92 7 63 47 58 -110 80 21
000070 0e ce 0d de 54 2e b4 c9 23 2b d7 d9 64 0f 57 bd
       14 -50 13 -34 84 46 -76 -55 35 43 -41 -39 100 15 87 -67
000080 19 de 95 cc 66 be 05 e4 63 ef a5 db 1a 1d 2c 7f
       25 -34 -107 -52 102 -66 5 -28 99 -17 -91 -37 26 29 44 127
000090 1a d1 ea b1 3f f5 38 90 ea 2a ca b5 ff 09 b9 ef
       26 -47 -22 -79 63 -11 56 -112 -22 42 -54 -75 -1 9 -71 -17
0000a0 b3 5c 9f 68 d2 6f be 32 f1 90 f3 f8 7f 81 a4 a9
       -77 92 -97 104 -46 111 -66 50 -15 -112 -13 -8 127 -127 -92 -87
0000b0 10 19 4f df bd ab 78 1d 9e cc 1b e1 5d 09 2a 39
       16 25 79 -33 -67 -85 120 29 -98 -52 27 -31 93 9 42 57
0000c0 f1 38 f8 64 65 ea fa ee dd bf a2 8a 81 58 21 59
       -15 56 -8 100 101 -22 -6 -18 -35 -65 -94 -118 -127 88 33 89
0000d0 0a ec 09 aa 4b f4 b6 ed ac 92 e2 da c0 1a 31 cb
       10 -20 9 -86 75 -12 -74 -19 -84 -110 -30 -38 -64 26 49 -53
0000e0 27 18 b6 73 0a ac eb f9 d2 cd fa 12 dc a5 58 16
       39 24 -74 115 10 -84 -21 -7 -46 -51 -6 18 -36 -91 88 22
0000f0 bd 28 03 9c 10 af 08 4b 81 f5 d3 cd d7 40 96 4a
       -67 40 3 -100 16 -81 8 75 -127 -11 -45 -51 -41 64 -106 74

sequential/conv2d/Conv2D i1 [4, 3, 3, 1]
000000 f5 c7 15 f2 f4 7f 08 e9 94 ac 86 ea de 7f 3e 7d
       -11 -57 21 -14 -12 127 8 -23 -108 -84 -122 -22 -34 127 62 125
000010 35 e8 69 f6 3a a6 a7 2e c0 7e 81 9a 7f 09 28 ab
       53 -24 105 -10 58 -90 -89 46 -64 126 -127 -102 127 9 40 -85
000020 60 f0 fa 3d
       96 -16 -6 61
