0_dev_notebooks/2_train_test_routine/train_outputs/20230904_220754_half_trunc_40epoch/qt/models/qt_model.tflite (tflite, 9784 bytes, 6 tensors)

sequential/dense/MatMul i1 [1, 1024] scale=0.0029799026 zero_point=0
0	0xef	-0.050658345
1	0xdd	-0.10429659
2	0xe7	-0.074497566
3	0x05	0.014899513
4	0x20	0.09535688
5	0x01	0.0029799026
6	0xfb	-0.014899513
7	0xe8	-0.07151766
8	0x1d	0.086417176
9	0xe9	-0.06853776
10	0x11	0.050658345
11	0xea	-0.06555785
12	0x13	0.056618147
13	0x27	0.1162162
14	0x0a	0.029799026
15	0x03	0.008939708
16	0x01	0.0029799026
17	0x36	0.16091473
18	0x01	0.0029799026
19	0x2a	0.12515591
20	0xe7	-0.074497566
21	0x20	0.09535688
22	0x01	0.0029799026
23	0xf4	-0.03575883
24	0x12	0.053638246
25	0x17	0.06853776
26	0x05	0.014899513
27	0x17	0.06853776
28	0x01	0.0029799026
29	0xee	-0.053638246
30	0x15	0.062577955
31	0x07	0.020859318
32	0x18	0.07151766
33	0x12	0.053638246
34	0x3b	0.17581426
35	0xdd	-0.10429659
36	0x0a	0.029799026
37	0x32	0.14899513
38	0xde	-0.10131669
39	0x2c	0.1311157
40	0x1c	0.08343727
41	0x0e	0.041718636
42	0xea	-0.06555785
43	0x04	0.01191961
44	0x0f	0.044698536
45	0xee	-0.053638246
46	0x03	0.008939708
47	0xfd	-0.008939708
48	0x11	0.050658345
49	0x14	0.05959805
50	0xd5	-0.12813582
51	0xeb	-0.062577955
52	0x08	0.02383922
53	0x66	0.30395007
54	0x03	0.008939708
55	0x20	0.09535688
56	0x10	0.04767844
57	0x10	0.04767844
58	0xfc	-0.01191961
59	0xfa	-0.017879415
60	0x15	0.062577955
61	0xf3	-0.038738735
62	0xfc	-0.01191961
63	0xd5	-0.12813582
64	0x03	0.008939708
65	0x04	0.01191961
66	0xda	-0.11323629
67	0xfb	-0.014899513
68	0xf9	-0.020859318
69	0x47	0.21157308
70	0xca	-0.16091473
71	0x3f	0.18773386
72	0x03	0.008939708
73	0x0d	0.038738735
74	0xf7	-0.026819123
75	0xe4	-0.08343727
76	0x1a	0.07747747
77	0x03	0.008939708
78	0x05	0.014899513
79	0x0e	0.041718636
80	0x20	0.09535688
81	0xfe	-0.005959805
82	0x1e	0.08939707
83	0x00	0.0
84	0xec	-0.05959805
85	0x19	0.074497566
86	0xe0	-0.09535688
87	0x41	0.19369367
88	0xe5	-0.08045737
89	0xe6	-0.07747747
90	0x03	0.008939708
91	0x15	0.062577955
92	0x01	0.0029799026
93	0x4e	0.2324324
94	0x09	0.026819123
95	0x16	0.06555785
96	0xfb	-0.014899513
97	0xec	-0.05959805
98	0x15	0.062577955
99	0x23	0.10429659
100	0x0b	0.032778926
101	0x1a	0.07747747
102	0xfb	-0.014899513
103	0x62	0.29203045
104	0xf5	-0.032778926
105	0xf4	-0.03575883
106	0x23	0.10429659
107	0x3e	0.18475395
108	0xe2	-0.08939707
109	0x18	0.07151766
110	0x0e	0.041718636
111	0x0d	0.038738735
112	0xfc	-0.01191961
113	0xf1	-0.044698536
114	0x01	0.0029799026
115	0xe3	-0.086417176
116	0x18	0.07151766
117	0xec	-0.05959805
118	0x19	0.074497566
119	0x22	0.10131669
120	0x09	0.026819123
121	0xfa	-0.017879415
122	0x09	0.026819123
123	0x13	0.056618147
124	0xd8	-0.1191961
125	0x16	0.06555785
126	0x1d	0.086417176
127	0x01	0.0029799026
128	0x20	0.09535688
129	0xe2	-0.08939707
130	0xef	-0.050658345
131	0x05	0.014899513
132	0xf1	-0.044698536
133	0x18	0.07151766
134	0xf1	-0.044698536
135	0xdc	-0.10727649
136	0xf4	-0.03575883
137	0xfc	-0.01191961
138	0xe6	-0.07747747
139	0xf6	-0.029799026
140	0x2c	0.1311157
141	0xf1	-0.044698536
142	0x23	0.10429659
143	0xec	-0.05959805
144	0x40	0.19071376
145	0x43	0.19965348
146	0x2f	0.14005542
147	0x0c	0.03575883
148	0x18	0.07151766
149	0x46	0.20859317
150	0xd7	-0.12217601
151	0x23	0.10429659
152	0x08	0.02383922
153	0xfe	-0.005959805
154	0x4e	0.2324324
155	0xd7	-0.12217601
156	0xec	-0.05959805
157	0x0c	0.03575883
158	0x14	0.05959805
159	0x05	0.014899513
160	0x05	0.014899513
161	0x30	0.14303532
162	0x01	0.0029799026
163	0xf4	-0.03575883
164	0xd6	-0.12515591
165	0x00	0.0
166	0xef	-0.050658345
167	0x35	0.15793483
168	0xfc	-0.01191961
169	0xf8	-0.02383922
170	0xe7	-0.074497566
171	0x03	0.008939708
172	0x0b	0.032778926
173	0x1d	0.086417176
174	0x0e	0.041718636
175	0xe3	-0.086417176
176	0x0f	0.044698536
177	0x1f	0.09237698
178	0x15	0.062577955
179	0x15	0.062577955
180	0xfb	-0.014899513
181	0x3b	0.17581426
182	0x01	0.0029799026
183	0x1b	0.08045737
184	0xf0	-0.04767844
185	0x0b	0.032778926
186	0x03	0.008939708
187	0xfa	-0.017879415
188	0xff	-0.0029799026
189	0xe5	-0.08045737
190	0xeb	-0.062577955
191	0xed	-0.056618147
192	0xfd	-0.008939708
193	0xe2	-0.08939707
194	0xeb	-0.062577955
195	0x19	0.074497566
196	0x04	0.01191961
197	0xfb	-0.014899513
198	0x11	0.050658345
199	0x23	0.10429659
200	0x18	0.07151766
201	0xe3	-0.086417176
202	0xf5	-0.032778926
203	0x09	0.026819123
204	0xfd	-0.008939708
205	0x12	0.053638246
206	0xf4	-0.03575883
207	0xee	-0.053638246
208	0x13	0.056618147
209	0x1e	0.08939707
210	0x0c	0.03575883
211	0x2c	0.1311157
212	0x02	0.005959805
213	0x0c	0.03575883
214	0x09	0.026819123
215	0x4a	0.22051279
216	0xf4	-0.03575883
217	0x09	0.026819123
218	0x0c	0.03575883
219	0xfd	-0.008939708
220	0x0c	0.03575883
221	0xe2	-0.08939707
222	0x14	0.05959805
223	0x34	0.15495494
224	0xe2	-0.08939707
225	0x15	0.062577955
226	0x19	0.074497566
227	0x23	0.10429659
228	0x0c	0.03575883
229	0xe6	-0.07747747
230	0x01	0.0029799026
231	0xe4	-0.08343727
232	0xea	-0.06555785
233	0x1d	0.086417176
234	0x22	0.10131669
235	0x10	0.04767844
236	0xfc	-0.01191961
237	0x17	0.06853776
238	0x0a	0.029799026
239	0x0b	0.032778926
240	0xf6	-0.029799026
241	0x35	0.15793483
242	0x0c	0.03575883
243	0x0c	0.03575883
244	0x2f	0.14005542
245	0xf5	-0.032778926
246	0x03	0.008939708
247	0x2b	0.12813582
248	0xef	-0.050658345
249	0xee	-0.053638246
250	0xed	-0.056618147
251	0xe6	-0.07747747
252	0x07	0.020859318
253	0x20	0.09535688
254	0x0f	0.044698536
255	0x08	0.02383922

sequential/conv2d_4/Conv2D i1 [16, 3, 3, 8]
0	0xf0	-16
1	0x28	40
2	0x2e	46
3	0x25	37
4	0x22	34
5	0x81	-127
6	0x5a	90
7	0x09	9
8	0x0a	10
9	0xf7	-9
10	0x09	9
11	0xfc	-4
12	0xfc	-4
13	0x35	53
14	0x2e	46
15	0x27	39
16	0x1c	28
17	0x1b	27
18	0x30	48
19	0xc3	-61
20	0xba	-70
21	0x11	17
22	0xde	-34
23	0x2d	45
24	0xb8	-72
25	0xe9	-23
26	0xe1	-31
27	0xf0	-16
28	0x01	1
29	0x33	51
30	0x5e	94
31	0xc5	-59
32	0x10	16
33	0xdf	-33
34	0xd9	-39
35	0x2a	42
36	0xff	-1
37	0xe6	-26
38	0x37	55
39	0xeb	-21
40	0x29	41
41	0x8a	-118
42	0x3b	59
43	0xd9	-39
44	0x1b	27
45	0xb6	-74
46	0xb7	-73
47	0x09	9
48	0x27	39
49	0xc2	-62
50	0xcf	-49
51	0x1e	30
52	0xec	-20
53	0xf3	-13
54	0x3a	58
55	0xef	-17
56	0x98	-104
57	0x37	55
58	0x07	7
59	0xf8	-8
60	0xe3	-29
61	0xf1	-15
62	0x55	85
63	0xd1	-47
64	0xae	-82
65	0x1f	31
66	0xde	-34
67	0x03	3
68	0xa6	-90
69	0xcd	-51
70	0x0a	10
71	0x02	2
72	0xb2	-78
73	0x2d	45
74	0x07	7
75	0x2d	45
76	0xff	-1
77	0xd6	-42
78	0x2d	45
79	0xc4	-60
80	0xc1	-63
81	0x17	23
82	0x8d	-115
83	0x1d	29
84	0xf2	-14
85	0x01	1
86	0x45	69
87	0x4a	74
88	0xcb	-53
89	0x01	1
90	0xae	-82
91	0x29	41
92	0xe2	-30
93	0x0d	13
94	0x36	54
95	0xed	-19
96	0x61	97
97	0xec	-20
98	0xa0	-96
99	0xe5	-27
100	0x2d	45
101	0xa9	-87
102	0x18	24
103	0xf6	-10
104	0x53	83
105	0x9f	-97
106	0xcd	-51
107	0xdc	-36
108	0x38	56
109	0xa5	-91
110	0xdb	-37
111	0x3c	60
112	0x51	81
113	0x56	86
114	0x2e	46
115	0x2a	42
116	0xfb	-5
117	0xe7	-25
118	0x0d	13
119	0x17	23
120	0x4e	78
121	0x0c	12
122	0xdf	-33
123	0xe5	-27
124	0xc6	-58
125	0x7f	127
126	0x14	20
127	0xe4	-28
128	0xac	-84
129	0xd9	-39
130	0xe5	-27
131	0x53	83
132	0xf8	-8
133	0x59	89
134	0xc3	-61
135	0x69	105
136	0xe6	-26
137	0x6f	111
138	0x47	71
139	0xbb	-69
140	0xb5	-75
141	0x01	1
142	0xed	-19
143	0xba	-70
144	0x1e	30
145	0xf3	-13
146	0x08	8
147	0x3c	60
148	0x06	6
149	0xc3	-61
150	0x07	7
151	0x23	35
152	0xcd	-51
153	0x44	68
154	0x19	25
155	0xb1	-79
156	0x38	56
157	0xac	-84
158	0x4d	77
159	0x32	50
160	0xf6	-10
161	0x01	1
162	0xea	-22
163	0x09	9
164	0x32	50
165	0x7f	127
166	0x53	83
167	0xf9	-7
168	0xda	-38
169	0xce	-50
170	0xd9	-39
171	0xf8	-8
172	0x28	40
173	0xf8	-8
174	0x07	7
175	0x11	17
176	0x13	19
177	0x3d	61
178	0xbe	-66
179	0xe9	-23
180	0xe0	-32
181	0x2d	45
182	0x11	17
183	0x05	5
184	0x0b	11
185	0xf7	-9
186	0xf3	-13
187	0xd8	-40
188	0x0a	10
189	0xf7	-9
190	0x60	96
191	0x10	16
192	0x2b	43
193	0x31	49
194	0xbd	-67
195	0x27	39
196	0x0b	11
197	0xe2	-30
198	0x04	4
199	0x28	40
200	0x14	20
201	0xad	-83
202	0x1d	29
203	0xdb	-37
204	0xf4	-12
205	0x15	21
206	0x27	39
207	0x50	80
208	0x0b	11
209	0xb5	-75
210	0xc8	-56
211	0xcc	-52
212	0xce	-50
213	0xce	-50
214	0x11	17
215	0xd1	-47
216	0xe1	-31
217	0x18	24
218	0x0c	12
219	0xf0	-16
220	0x2e	46
221	0x11	17
222	0xb1	-79
223	0xe7	-25
224	0xa5	-91
225	0x06	6
226	0xdc	-36
227	0xf9	-7
228	0x19	25
229	0x02	2
230	0x0d	13
231	0x47	71
232	0xdc	-36
233	0x3f	63
234	0x32	50
235	0x2b	43
236	0xb1	-79
237	0x16	22
238	0x16	22
239	0xf7	-9
240	0xee	-18
241	0xc0	-64
242	0x09	9
243	0xf4	-12
244	0xe6	-26
245	0xfe	-2
246	0xc3	-61
247	0x1d	29
248	0x23	35
249	0xf8	-8
250	0x07	7
251	0x25	37
252	0x04	4
253	0xe7	-25
254	0x1a	26
255	0x19	25

sequential/conv2d_3/Conv2D i1 [8, 3, 3, 8]
0	0xb3	-77
1	0x3b	59
2	0xd8	-40
3	0xd5	-43
4	0xcd	-51
5	0xcc	-52
6	0xef	-17
7	0x32	50
8	0xf3	-13
9	0xd3	-45
10	0xc3	-61
11	0xb3	-77
12	0x13	19
13	0xb3	-77
14	0xd2	-46
15	0x43	67
16	0xb8	-72
17	0xcc	-52
18	0x09	9
19	0xee	-18
20	0x0c	12
21	0xc8	-56
22	0x23	35
23	0xc7	-57
24	0xcb	-53
25	0x30	48
26	0xf6	-10
27	0x43	67
28	0xbc	-68
29	0x00	0
30	0x35	53
31	0x2f	47
32	0x02	2
33	0x13	19
34	0xd4	-44
35	0xd4	-44
36	0x35	53
37	0x17	23
38	0x28	40
39	0xe1	-31
40	0xa4	-92
41	0x9c	-100
42	0xda	-38
43	0x17	23
44	0x09	9
45	0x3f	63
46	0xe0	-32
47	0x35	53
48	0xde	-34
49	0x59	89
50	0x34	52
51	0xde	-34
52	0xe7	-25
53	0xf8	-8
54	0x39	57
55	0xeb	-21
56	0x81	-127
57	0x10	16
58	0x23	35
59	0x71	113
60	0x3f	63
61	0x4d	77
62	0xd4	-44
63	0xaa	-86
64	0x11	17
65	0x0b	11
66	0xc3	-61
67	0xd3	-45
68	0x62	98
69	0x63	99
70	0x29	41
71	0x2a	42
72	0x17	23
73	0xd9	-39
74	0x13	19
75	0xfc	-4
76	0xd9	-39
77	0xd4	-44
78	0x03	3
79	0xff	-1
80	0x5c	92
81	0xf7	-9
82	0xee	-18
83	0x0c	12
84	0xc5	-59
85	0xc6	-58
86	0xd0	-48
87	0xdc	-36
88	0xb2	-78
89	0xdf	-33
90	0x4d	77
91	0xe6	-26
92	0x05	5
93	0x0d	13
94	0x2b	43
95	0xf0	-16
96	0x20	32
97	0xe3	-29
98	0x3e	62
99	0xb9	-71
100	0x24	36
101	0xc9	-55
102	0x07	7
103	0xe1	-31
104	0x02	2
105	0x43	67
106	0xc5	-59
107	0x18	24
108	0xe5	-27
109	0xef	-17
110	0xae	-82
111	0xe9	-23
112	0x2f	47
113	0x9f	-97
114	0x55	85
115	0x08	8
116	0x67	103
117	0x51	81
118	0x4a	74
119	0xf0	-16
120	0x51	81
121	0x21	33
122	0xf3	-13
123	0xec	-20
124	0x26	38
125	0x13	19
126	0xf6	-10
127	0x19	25
128	0xed	-19
129	0x05	5
130	0xeb	-21
131	0x81	-127
132	0xb3	-77
133	0xd1	-47
134	0xc4	-60
135	0xa0	-96
136	0x29	41
137	0xcc	-52
138	0x42	66
139	0x0e	14
140	0xea	-22
141	0xdc	-36
142	0xfc	-4
143	0x08	8
144	0x62	98
145	0xf3	-13
146	0xd4	-44
147	0xf4	-12
148	0x25	37
149	0x3a	58
150	0xed	-19
151	0x4e	78
152	0x3e	62
153	0x27	39
154	0xec	-20
155	0x19	25
156	0x49	73
157	0xec	-20
158	0xff	-1
159	0x69	105
160	0x28	40
161	0x78	120
162	0xd7	-41
163	0x45	69
164	0x03	3
165	0x66	102
166	0x23	35
167	0x43	67
168	0x59	89
169	0xca	-54
170	0xd7	-41
171	0xbc	-68
172	0x0f	15
173	0x10	16
174	0xeb	-21
175	0x53	83
176	0x44	68
177	0x0f	15
178	0xc6	-58
179	0xbd	-67
180	0x1d	29
181	0xbb	-69
182	0x13	19
183	0xde	-34
184	0x7a	122
185	0x7f	127
186	0xf0	-16
187	0x50	80
188	0xc2	-62
189	0xdb	-37
190	0xe3	-29
191	0x54	84
192	0xec	-20
193	0x13	19
194	0xcd	-51
195	0xdc	-36
196	0xf7	-9
197	0x0f	15
198	0xe5	-27
199	0xc9	-55
200	0xe7	-25
201	0x5b	91
202	0x00	0
203	0xe1	-31
204	0x17	23
205	0xdb	-37
206	0xe3	-29
207	0xc6	-58
208	0xc6	-58
209	0xe4	-28
210	0xce	-50
211	0xa1	-95
212	0xa1	-95
213	0x01	1
214	0xbb	-69
215	0x04	4
216	0xc3	-61
217	0xe1	-31
218	0xeb	-21
219	0x02	2
220	0x17	23
221	0x47	71
222	0xf4	-12
223	0x0d	13
224	0xbc	-68
225	0x9d	-99
226	0xd9	-39
227	0xb4	-76
228	0x12	18
229	0x24	36
230	0x35	53
231	0x12	18
232	0xda	-38
233	0xd3	-45
234	0xe6	-26
235	0xd7	-41
236	0x15	21
237	0xbd	-67
238	0xe2	-30
239	0xf3	-13
240	0x8f	-113
241	0x04	4
242	0x11	17
243	0x6e	110
244	0xf9	-7
245	0x00	0
246	0x21	33
247	0x10	16
248	0xb7	-73
249	0x81	-127
250	0x07	7
251	0x2e	46
252	0x31	49
253	0x01	1
254	0x15	21
255	0xf2	-14

sequential/conv2d_2/Conv2D i1 [8, 3, 3, 4]
0	0x1b	27
1	0xe5	-27
2	0xf9	-7
3	0x5c	92
4	0x13	19
5	0xfe	-2
6	0xc7	-57
7	0x0f	15
8	0x2e	46
9	0xee	-18
10	0x26	38
11	0xf6	-10
12	0x1e	30
13	0x28	40
14	0xae	-82
15	0x31	49
16	0xa5	-91
17	0x20	32
18	0x83	-125
19	0x15	21
20	0xe0	-32
21	0xf5	-11
22	0xd7	-41
23	0x33	51
24	0x45	69
25	0xd0	-48
26	0xbf	-65
27	0x03	3
28	0x24	36
29	0x02	2
30	0x81	-127
31	0x09	9
32	0x96	-106
33	0xc7	-57
34	0xcd	-51
35	0x4c	76
36	0x23	35
37	0x0b	11
38	0x32	50
39	0x36	54
40	0x5d	93
41	0xd3	-45
42	0xed	-19
43	0x39	57
44	0x10	16
45	0xc2	-62
46	0xf6	-10
47	0x1a	26
48	0xf4	-12
49	0xf3	-13
50	0xf4	-12
51	0x17	23
52	0x1a	26
53	0x1b	27
54	0xfa	-6
55	0xe7	-25
56	0x1f	31
57	0xde	-34
58	0x0e	14
59	0xb7	-73
60	0xf8	-8
61	0xdc	-36
62	0xc9	-55
63	0x48	72
64	0xc7	-57
65	0x2d	45
66	0xe8	-24
67	0x81	-127
68	0xc9	-55
69	0x0d	13
70	0xde	-34
71	0xb2	-78
72	0x3e	62
73	0xe6	-26
74	0xee	-18
75	0xf7	-9
76	0xe8	-24
77	0xc6	-58
78	0x39	57
79	0x2d	45
80	0xf8	-8
81	0x0f	15
82	0x1b	27
83	0x1b	27
84	0x1b	27
85	0x2f	47
86	0xa4	-92
87	0xc0	-64
88	0xcf	-49
89	0xe3	-29
90	0x68	104
91	0xf8	-8
92	0x0f	15
93	0xfb	-5
94	0x6e	110
95	0xf4	-12
96	0x15	21
97	0xc7	-57
98	0x29	41
99	0x81	-127
100	0x98	-104
101	0x05	5
102	0x1a	26
103	0x01	1
104	0x09	9
105	0xf5	-11
106	0x4e	78
107	0x04	4
108	0x3d	61
109	0xa6	-90
110	0x59	89
111	0x14	20
112	0x09	9
113	0xf5	-11
114	0xed	-19
115	0xf0	-16
116	0x41	65
117	0x8d	-115
118	0x5e	94
119	0x06	6
120	0x05	5
121	0xc3	-61
122	0x20	32
123	0xc5	-59
124	0x37	55
125	0x81	-127
126	0x02	2
127	0x11	17
128	0x43	67
129	0x91	-111
130	0x16	22
131	0xf2	-14
132	0x45	69
133	0xa1	-95
134	0xff	-1
135	0xc8	-56
136	0x39	57
137	0xe1	-31
138	0xb6	-74
139	0xec	-20
140	0x44	68
141	0xdc	-36
142	0x1a	26
143	0x29	41
144	0xe4	-28
145	0x32	50
146	0x16	22
147	0x37	55
148	0xdb	-37
149	0x0e	14
150	0x4f	79
151	0xe1	-31
152	0xea	-22
153	0x09	9
154	0xef	-17
155	0x3c	60
156	0x29	41
157	0xea	-22
158	0xd6	-42
159	0xed	-19
160	0x0c	12
161	0x28	40
162	0x4b	75
163	0x49	73
164	0x81	-127
165	0x34	52
166	0x19	25
167	0x37	55
168	0xa1	-95
169	0xf9	-7
170	0xc3	-61
171	0xe0	-32
172	0x3b	59
173	0x9f	-97
174	0x49	73
175	0x10	16
176	0x32	50
177	0xb8	-72
178	0x43	67
179	0x3d	61
180	0xf4	-12
181	0x42	66
182	0xe5	-27
183	0x33	51
184	0x41	65
185	0xcf	-49
186	0x39	57
187	0xd9	-39
188	0x27	39
189	0x42	66
190	0x44	68
191	0x0d	13
192	0x16	22
193	0xeb	-21
194	0xba	-70
195	0x15	21
196	0x13	19
197	0xaf	-81
198	0x50	80
199	0x48	72
200	0x0c	12
201	0x81	-127
202	0xce	-50
203	0xd7	-41
204	0x3f	63
205	0x13	19
206	0x47	71
207	0x2f	47
208	0x15	21
209	0x99	-103
210	0x52	82
211	0x4c	76
212	0x64	100
213	0xab	-85
214	0x4f	79
215	0x01	1
216	0x3e	62
217	0x00	0
218	0xf5	-11
219	0xca	-54
220	0xc0	-64
221	0x4a	74
222	0x3b	59
223	0x33	51
224	0x14	20
225	0x7f	127
226	0x1c	28
227	0xf8	-8
228	0x7f	127
229	0x2c	44
230	0x05	5
231	0xd4	-44
232	0xb6	-74
233	0xd3	-45
234	0x74	116
235	0x45	69
236	0xa2	-94
237	0x12	18
238	0xff	-1
239	0x5a	90
240	0x68	104
241	0x86	-122
242	0x2e	46
243	0x6b	107
244	0xd6	-42
245	0x89	-119
246	0x64	100
247	0xd8	-40
248	0xcc	-52
249	0xae	-82
250	0x65	101
251	0xd3	-45
252	0xc2	-62
253	0xba	-70
254	0x40	64
255	0x4e	78

sequential/conv2d_1/Conv2D i1 [4, 3, 3, 2]
0	0x09	9
1	0x59	89
2	0xf2	-14
3	0xb8	-72
4	0xa7	-89
5	0xb9	-71
6	0x0b	11
7	0xa8	-88
8	0x7f	127
9	0x74	116
10	0xcd	-51
11	0x06	6
12	0xb0	-80
13	0x28	40
14	0x52	82
15	0x92	-110
16	0xc8	-56
17	0x2e	46
18	0xca	-54
19	0xdc	-36
20	0x01	1
21	0x81	-127
22	0x3f	63
23	0x15	21
24	0xee	-18
25	0x33	51
26	0x9c	-100
27	0xc4	-60
28	0xf7	-9
29	0xe2	-30
30	0xa6	-90
31	0x20	32
32	0xb1	-79
33	0xf5	-11
34	0x06	6
35	0x38	56
36	0xcf	-49
37	0xc6	-58
38	0x79	121
39	0x81	-127
40	0xb3	-77
41	0xc6	-58
42	0xc6	-58
43	0xea	-22
44	0x24	36
45	0x9e	-98
46	0x70	112
47	0x59	89
48	0x3d	61
49	0x16	22
50	0x00	0
51	0xc5	-59
52	0x6f	111
53	0x5d	93
54	0x49	73
55	0x00	0
56	0xa1	-95
57	0x5f	95
58	0x58	88
59	0x81	-127
60	0x3b	59
61	0x61	97
62	0x32	50
63	0x9e	-98
64	0x94	-108
65	0x89	-119
66	0x32	50
67	0xcb	-53
68	0xdd	-35
69	0xf7	-9
70	0x74	116
71	0xdc	-36

sequential/conv2d/Conv2D i1 [2, 3, 3, 1]
0	0x01	1
1	0x72	114
2	0xdd	-35
3	0xf8	-8
4	0x11	17
5	0x5d	93
6	0xf8	-8
7	0x81	-127
8	0xf4	-12
9	0xc4	-60
10	0x91	-111
11	0xa5	-91
12	0x7e	126
13	0xf2	-14
14	0x15	21
15	0xfb	-5
16	0x2e	46
17	0x7f	127
