0_dev_notebooks/train_outputs/20230813_170712_half_trunc_50epoch/qt/models/qt_model.tflite (tflite, 9784 bytes, 6 tensors)

sequential/dense/MatMul i1 [1, 1024] scale=0.0034568233 zero_point=0
0	0xf1	-0.05185235
1	0xe5	-0.09333423
2	0xec	-0.06913646
3	0x09	0.03111141
4	0x1c	0.09679105
5	0x05	0.017284116
6	0xfc	-0.013827293
7	0xf4	-0.04148188
8	0x1a	0.089877404
9	0xee	-0.06222282
10	0x13	0.06567964
11	0xee	-0.06222282
12	0x0e	0.048395526
13	0x32	0.17284116
14	0x08	0.027654586
15	0xff	-0.0034568233
16	0xfa	-0.02074094
17	0x2b	0.1486434
18	0x01	0.0034568233
19	0x21	0.11407517
20	0xee	-0.06222282
21	0x1d	0.100247875
22	0x03	0.01037047
23	0xf7	-0.03111141
24	0x10	0.055309173
25	0x13	0.06567964
26	0x04	0.013827293
27	0x1b	0.09333423
28	0x00	0.0
29	0xef	-0.058765996
30	0x12	0.06222282
31	0x07	0.024197763
32	0x1b	0.09333423
33	0x0d	0.044938702
34	0x3a	0.20049575
35	0xe0	-0.110618345
36	0x08	0.027654586
37	0x2d	0.15555705
38	0xe5	-0.09333423
39	0x24	0.12444564
40	0x16	0.07605011
41	0x0c	0.04148188
42	0xf1	-0.05185235
43	0xfd	-0.01037047
44	0x0d	0.044938702
45	0xf5	-0.038025055
46	0x07	0.024197763
47	0xff	-0.0034568233
48	0x1e	0.1037047
49	0x13	0.06567964
50	0xd8	-0.13827293
51	0xea	-0.07605011
52	0x08	0.027654586
53	0x5c	0.31802773
54	0x03	0.01037047
55	0x1a	0.089877404
56	0x0e	0.048395526
57	0x10	0.055309173
58	0xf7	-0.03111141
59	0xf7	-0.03111141
60	0x12	0.06222282
61	0xf3	-0.044938702
62	0xfb	-0.017284116
63	0xdc	-0.12444564
64	0x16	0.07605011
65	0x02	0.0069136466
66	0xdd	-0.120988816
67	0x00	0.0
68	0xf6	-0.03456823
69	0x48	0.24889128
70	0xd5	-0.1486434
71	0x32	0.17284116
72	0x04	0.013827293
73	0x0b	0.038025055
74	0xf2	-0.048395526
75	0xec	-0.06913646
76	0x18	0.08296376
77	0x00	0.0
78	0x05	0.017284116
79	0x0d	0.044938702
80	0x1a	0.089877404
81	0xfa	-0.02074094
82	0x1b	0.09333423
83	0xfe	-0.0069136466
84	0xf2	-0.048395526
85	0x14	0.06913646
86	0xe1	-0.10716152
87	0x37	0.19012529
88	0xe5	-0.09333423
89	0xeb	-0.07259329
90	0x06	0.02074094
91	0x15	0.07259329
92	0x02	0.0069136466
93	0x3f	0.21777987
94	0x08	0.027654586
95	0x16	0.07605011
96	0x08	0.027654586
97	0xec	-0.06913646
98	0x10	0.055309173
99	0x1b	0.09333423
100	0x08	0.027654586
101	0x14	0.06913646
102	0xfa	-0.02074094
103	0x6d	0.37679374
104	0xfa	-0.02074094
105	0xf6	-0.03456823
106	0x21	0.11407517
107	0x3c	0.2074094
108	0xe7	-0.08642058
109	0x10	0.055309173
110	0x11	0.058765996
111	0x0e	0.048395526
112	0xfd	-0.01037047
113	0xf3	-0.044938702
114	0x02	0.0069136466
115	0xe6	-0.089877404
116	0x17	0.07950693
117	0xec	-0.06913646
118	0x12	0.06222282
119	0x1a	0.089877404
120	0x02	0.0069136466
121	0xfc	-0.013827293
122	0x0f	0.05185235
123	0x15	0.07259329
124	0xdd	-0.120988816
125	0x18	0.08296376
126	0x1c	0.09679105
127	0x05	0.017284116
128	0x12	0.06222282
129	0xe9	-0.07950693
130	0xf3	-0.044938702
131	0x08	0.027654586
132	0xf4	-0.04148188
133	0x19	0.08642058
134	0xf2	-0.048395526
135	0xd7	-0.14172976
136	0xf6	-0.03456823
137	0xfd	-0.01037047
138	0xef	-0.058765996
139	0xff	-0.0034568233
140	0x2c	0.15210022
141	0xed	-0.06567964
142	0x23	0.120988816
143	0xef	-0.058765996
144	0x4f	0.27308905
145	0x41	0.2246935
146	0x2a	0.14518657
147	0x08	0.027654586
148	0x15	0.07259329
149	0x40	0.22123669
150	0xdc	-0.12444564
151	0x1e	0.1037047
152	0x07	0.024197763
153	0xfe	-0.0069136466
154	0x47	0.24543445
155	0xdf	-0.11407517
156	0xf0	-0.055309173
157	0x05	0.017284116
158	0x10	0.055309173
159	0x08	0.027654586
160	0x12	0.06222282
161	0x2c	0.15210022
162	0x00	0.0
163	0xf0	-0.055309173
164	0xe0	-0.110618345
165	0x02	0.0069136466
166	0xee	-0.06222282
167	0x36	0.18666846
168	0xfd	-0.01037047
169	0xf8	-0.027654586
170	0xe5	-0.09333423
171	0xfa	-0.02074094
172	0x0b	0.038025055
173	0x16	0.07605011
174	0x07	0.024197763
175	0xe3	-0.100247875
176	0x03	0.01037047
177	0x17	0.07950693
178	0x1c	0.09679105
179	0x18	0.08296376
180	0xf5	-0.038025055
181	0x35	0.18321164
182	0xfd	-0.01037047
183	0x1c	0.09679105
184	0xf1	-0.05185235
185	0x08	0.027654586
186	0x07	0.024197763
187	0xf6	-0.03456823
188	0xfd	-0.01037047
189	0xef	-0.058765996
190	0xef	-0.058765996
191	0xef	-0.058765996
192	0xfa	-0.02074094
193	0xe2	-0.1037047
194	0xe8	-0.08296376
195	0x18	0.08296376
196	0x01	0.0034568233
197	0xfe	-0.0069136466
198	0x12	0.06222282
199	0x1f	0.10716152
200	0x13	0.06567964
201	0xe3	-0.100247875
202	0xfc	-0.013827293
203	0x06	0.02074094
204	0xff	-0.0034568233
205	0x0e	0.048395526
206	0xf3	-0.044938702
207	0xee	-0.06222282
208	0x18	0.08296376
209	0x15	0.07259329
210	0x0a	0.03456823
211	0x2e	0.15901387
212	0x04	0.013827293
213	0x0c	0.04148188
214	0x08	0.027654586
215	0x4a	0.25580493
216	0xf6	-0.03456823
217	0x04	0.013827293
218	0x0b	0.038025055
219	0xff	-0.0034568233
220	0x08	0.027654586
221	0xe1	-0.10716152
222	0x13	0.06567964
223	0x2e	0.15901387
224	0xe1	-0.10716152
225	0x0b	0.038025055
226	0x17	0.07950693
227	0x25	0.12790246
228	0x0f	0.05185235
229	0xe7	-0.08642058
230	0x07	0.024197763
231	0xee	-0.06222282
232	0xed	-0.06567964
233	0x17	0.07950693
234	0x23	0.120988816
235	0x1a	0.089877404
236	0xfc	-0.013827293
237	0x17	0.07950693
238	0x05	0.017284116
239	0x0c	0.04148188
240	0xf5	-0.038025055
241	0x29	0.14172976
242	0x0f	0.05185235
243	0x15	0.07259329
244	0x2b	0.1486434
245	0xf9	-0.024197763
246	0x0d	0.044938702
247	0x33	0.17629799
248	0xf1	-0.05185235
249	0xf1	-0.05185235
250	0xee	-0.06222282
251	0xec	-0.06913646
252	0x07	0.024197763
253	0x1b	0.09333423
254	0x0a	0.03456823
255	0x08	0.027654586

sequential/conv2d_4/Conv2D i1 [16, 3, 3, 8]
0	0xf1	-15
1	0x2b	43
2	0x3b	59
3	0x29	41
4	0x2f	47
5	0x8d	-115
6	0x66	102
7	0x10	16
8	0x0e	14
9	0xf1	-15
10	0x13	19
11	0x03	3
12	0x04	4
13	0x3c	60
14	0x30	48
15	0x22	34
16	0x14	20
17	0x11	17
18	0x2d	45
19	0xbd	-67
20	0xb7	-73
21	0x0b	11
22	0xd8	-40
23	0x30	48
24	0xc4	-60
25	0xec	-20
26	0xe2	-30
27	0xf1	-15
28	0x0c	12
29	0x2d	45
30	0x5e	94
31	0xcd	-51
32	0x13	19
33	0xe9	-23
34	0xd2	-46
35	0x2f	47
36	0x03	3
37	0xe7	-25
38	0x3d	61
39	0xe7	-25
40	0x2b	43
41	0x81	-127
42	0x3c	60
43	0xdb	-37
44	0x1e	30
45	0xb9	-71
46	0xb1	-79
47	0x07	7
48	0x2b	43
49	0xc3	-61
50	0xd5	-43
51	0x1b	27
52	0xf5	-11
53	0xfc	-4
54	0x45	69
55	0xf2	-14
56	0x93	-109
57	0x33	51
58	0x03	3
59	0xf5	-11
60	0xe3	-29
61	0xf3	-13
62	0x5a	90
63	0xca	-54
64	0xac	-84
65	0x24	36
66	0xdf	-33
67	0xff	-1
68	0xa2	-94
69	0xd7	-41
70	0x09	9
71	0x01	1
72	0xbc	-68
73	0x26	38
74	0x04	4
75	0x28	40
76	0xfe	-2
77	0xde	-34
78	0x2b	43
79	0xc6	-58
80	0xc5	-59
81	0x11	17
82	0x81	-127
83	0x24	36
84	0xfa	-6
85	0xf9	-7
86	0x49	73
87	0x46	70
88	0xd1	-47
89	0x0c	12
90	0xba	-70
91	0x2b	43
92	0xea	-22
93	0x1b	27
94	0x32	50
95	0xf0	-16
96	0x55	85
97	0xee	-18
98	0xa8	-88
99	0xea	-22
100	0x24	36
101	0xac	-84
102	0x14	20
103	0xf7	-9
104	0x49	73
105	0xa6	-90
106	0xcf	-49
107	0xd2	-46
108	0x40	64
109	0x9e	-98
110	0xe9	-23
111	0x28	40
112	0x4f	79
113	0x50	80
114	0x41	65
115	0x2e	46
116	0xfb	-5
117	0xf3	-13
118	0x1a	26
119	0x17	23
120	0x4e	78
121	0x09	9
122	0xe8	-24
123	0xed	-19
124	0xc8	-56
125	0x7f	127
126	0x12	18
127	0xe2	-30
128	0xb9	-71
129	0xd8	-40
130	0xea	-22
131	0x4a	74
132	0x02	2
133	0x4b	75
134	0xc6	-58
135	0x67	103
136	0xf9	-7
137	0x6c	108
138	0x4b	75
139	0xc1	-63
140	0xc3	-61
141	0x0d	13
142	0xeb	-21
143	0xc5	-59
144	0x22	34
145	0xf4	-12
146	0x05	5
147	0x46	70
148	0x02	2
149	0xca	-54
150	0x0f	15
151	0x22	34
152	0xca	-54
153	0x47	71
154	0x11	17
155	0xad	-83
156	0x39	57
157	0xaa	-86
158	0x4b	75
159	0x29	41
160	0xf6	-10
161	0x06	6
162	0xe5	-27
163	0x09	9
164	0x30	48
165	0x7f	127
166	0x55	85
167	0xf7	-9
168	0xda	-38
169	0xd2	-46
170	0xcc	-52
171	0xfa	-6
172	0x2e	46
173	0xf6	-10
174	0x05	5
175	0x11	17
176	0x0f	15
177	0x41	65
178	0xb3	-77
179	0xe2	-30
180	0xdd	-35
181	0x2b	43
182	0x0f	15
183	0x02	2
184	0x0a	10
185	0xfb	-5
186	0xee	-18
187	0xd7	-41
188	0x0a	10
189	0xff	-1
190	0x5c	92
191	0x18	24
192	0x2f	47
193	0x33	51
194	0xb0	-80
195	0x28	40
196	0x17	23
197	0xdc	-36
198	0x05	5
199	0x2f	47
200	0x0f	15
201	0xab	-85
202	0x14	20
203	0xdd	-35
204	0xf3	-13
205	0x14	20
206	0x22	34
207	0x4d	77
208	0x0c	12
209	0xba	-70
210	0xcf	-49
211	0xcd	-51
212	0xcf	-49
213	0xcc	-52
214	0x12	18
215	0xd5	-43
216	0xe9	-23
217	0x14	20
218	0x14	20
219	0xf3	-13
220	0x2b	43
221	0x0c	12
222	0xb4	-76
223	0xf1	-15
224	0xac	-84
225	0x03	3
226	0xe5	-27
227	0xf8	-8
228	0x0e	14
229	0x00	0
230	0x08	8
231	0x44	68
232	0xdb	-37
233	0x3b	59
234	0x31	49
235	0x22	34
236	0xb8	-72
237	0x17	23
238	0x17	23
239	0xf0	-16
240	0xf0	-16
241	0xc1	-63
242	0x11	17
243	0xf9	-7
244	0xe3	-29
245	0x0d	13
246	0xc6	-58
247	0x1d	29
248	0x1b	27
249	0xfe	-2
250	0x10	16
251	0x24	36
252	0x03	3
253	0xea	-22
254	0x1f	31
255	0x1b	27

sequential/conv2d_3/Conv2D i1 [8, 3, 3, 8]
0	0xb2	-78
1	0x3a	58
2	0xdf	-33
3	0xde	-34
4	0xd3	-45
5	0xd4	-44
6	0xf2	-14
7	0x37	55
8	0xfe	-2
9	0xd5	-43
10	0xcb	-53
11	0xc2	-62
12	0x11	17
13	0xc0	-64
14	0xd6	-42
15	0x43	67
16	0xb6	-74
17	0xcc	-52
18	0x0b	11
19	0xf1	-15
20	0x0a	10
21	0xcc	-52
22	0x22	34
23	0xc7	-57
24	0xcd	-51
25	0x27	39
26	0xfc	-4
27	0x38	56
28	0xc6	-58
29	0x00	0
30	0x33	51
31	0x2f	47
32	0xfa	-6
33	0x14	20
34	0xe2	-30
35	0xd5	-43
36	0x2f	47
37	0x17	23
38	0x28	40
39	0xe3	-29
40	0x9f	-97
41	0xa6	-90
42	0xdf	-33
43	0x15	21
44	0x02	2
45	0x3a	58
46	0xe3	-29
47	0x2d	45
48	0xd7	-41
49	0x53	83
50	0x32	50
51	0xe9	-23
52	0xf2	-14
53	0xfc	-4
54	0x37	55
55	0xe7	-25
56	0x81	-127
57	0x10	16
58	0x25	37
59	0x71	113
60	0x3d	61
61	0x47	71
62	0xdc	-36
63	0xae	-82
64	0x07	7
65	0x02	2
66	0xcb	-53
67	0xdf	-33
68	0x5a	90
69	0x5a	90
70	0x26	38
71	0x2d	45
72	0x13	19
73	0xe2	-30
74	0x16	22
75	0xf0	-16
76	0xdf	-33
77	0xd5	-43
78	0x02	2
79	0xf9	-7
80	0x53	83
81	0xf9	-7
82	0xee	-18
83	0x0a	10
84	0xc8	-56
85	0xca	-54
86	0xd0	-48
87	0xe0	-32
88	0xb6	-74
89	0xe1	-31
90	0x46	70
91	0xec	-20
92	0x08	8
93	0x0e	14
94	0x27	39
95	0xef	-17
96	0x1d	29
97	0xe4	-28
98	0x38	56
99	0xb8	-72
100	0x1d	29
101	0xcb	-53
102	0x07	7
103	0xe0	-32
104	0x03	3
105	0x35	53
106	0xcc	-52
107	0x0f	15
108	0xed	-19
109	0xed	-19
110	0xb5	-75
111	0xe5	-27
112	0x24	36
113	0xa4	-92
114	0x4f	79
115	0x0e	14
116	0x64	100
117	0x4c	76
118	0x43	67
119	0xf2	-14
120	0x48	72
121	0x1b	27
122	0xf7	-9
123	0xe7	-25
124	0x1d	29
125	0x08	8
126	0xf7	-9
127	0x11	17
128	0xec	-20
129	0xfd	-3
130	0xeb	-21
131	0x81	-127
132	0xbc	-68
133	0xd2	-46
134	0xc6	-58
135	0x99	-103
136	0x25	37
137	0xcd	-51
138	0x39	57
139	0x0d	13
140	0xee	-18
141	0xdf	-33
142	0xfb	-5
143	0x09	9
144	0x5d	93
145	0xf6	-10
146	0xd9	-39
147	0xfc	-4
148	0x25	37
149	0x35	53
150	0xf4	-12
151	0x4a	74
152	0x40	64
153	0x2b	43
154	0xea	-22
155	0x1e	30
156	0x3d	61
157	0xf3	-13
158	0x02	2
159	0x5f	95
160	0x24	36
161	0x67	103
162	0xd6	-42
163	0x40	64
164	0x03	3
165	0x5e	94
166	0x21	33
167	0x3b	59
168	0x54	84
169	0xd1	-47
170	0xd5	-43
171	0xbd	-67
172	0x0d	13
173	0x08	8
174	0xed	-19
175	0x4b	75
176	0x43	67
177	0x17	23
178	0xca	-54
179	0xc7	-57
180	0x19	25
181	0xc4	-60
182	0x0f	15
183	0xe0	-32
184	0x6b	107
185	0x7f	127
186	0xee	-18
187	0x47	71
188	0xc2	-62
189	0xde	-34
190	0xe6	-26
191	0x49	73
192	0xf0	-16
193	0x0a	10
194	0xd2	-46
195	0xd0	-48
196	0xf5	-11
197	0x0b	11
198	0xec	-20
199	0xcd	-51
200	0xe4	-28
201	0x51	81
202	0x00	0
203	0xe1	-31
204	0x15	21
205	0xe2	-30
206	0xe8	-24
207	0xc6	-58
208	0xc1	-63
209	0xe0	-32
210	0xcf	-49
211	0xa9	-87
212	0xad	-83
213	0x02	2
214	0xc8	-56
215	0x00	0
216	0xc1	-63
217	0xe5	-27
218	0xe8	-24
219	0x05	5
220	0x11	17
221	0x43	67
222	0xf1	-15
223	0x13	19
224	0xc1	-63
225	0xa3	-93
226	0xda	-38
227	0xb6	-74
228	0x15	21
229	0x22	34
230	0x36	54
231	0x18	24
232	0xda	-38
233	0xd5	-43
234	0xe4	-28
235	0xd1	-47
236	0x15	21
237	0xbf	-65
238	0xe4	-28
239	0xff	-1
240	0x8f	-113
241	0x01	1
242	0x0e	14
243	0x71	113
244	0xf8	-8
245	0xfc	-4
246	0x1a	26
247	0x14	20
248	0xb8	-72
249	0x81	-127
250	0x08	8
251	0x2f	47
252	0x2f	47
253	0xfd	-3
254	0x13	19
255	0xf7	-9

sequential/conv2d_2/Conv2D i1 [8, 3, 3, 4]
0	0x1a	26
1	0xe6	-26
2	0xf9	-7
3	0x58	88
4	0x19	25
5	0x02	2
6	0xc8	-56
7	0x0f	15
8	0x30	48
9	0xed	-19
10	0x22	34
11	0xfa	-6
12	0x16	22
13	0x25	37
14	0xb0	-80
15	0x29	41
16	0xa2	-94
17	0x1e	30
18	0x86	-122
19	0x10	16
20	0xeb	-21
21	0xf8	-8
22	0xd8	-40
23	0x35	53
24	0x43	67
25	0xd3	-45
26	0xbd	-67
27	0xfb	-5
28	0x1e	30
29	0x04	4
30	0x81	-127
31	0x0b	11
32	0x9f	-97
33	0xcd	-51
34	0xcf	-49
35	0x4e	78
36	0x24	36
37	0x09	9
38	0x30	48
39	0x31	49
40	0x58	88
41	0xd5	-43
42	0xf2	-14
43	0x33	51
44	0x0e	14
45	0xbf	-65
46	0xf5	-11
47	0x14	20
48	0xf2	-14
49	0xf9	-7
50	0xf3	-13
51	0x15	21
52	0x19	25
53	0x1a	26
54	0xf8	-8
55	0xe7	-25
56	0x1f	31
57	0xdd	-35
58	0x0a	10
59	0xb9	-71
60	0x01	1
61	0xe0	-32
62	0xcc	-52
63	0x42	66
64	0xc2	-62
65	0x2b	43
66	0xe4	-28
67	0x81	-127
68	0xc8	-56
69	0x10	16
70	0xda	-38
71	0xb1	-79
72	0x3c	60
73	0xe2	-30
74	0xee	-18
75	0xfa	-6
76	0xe4	-28
77	0xc4	-60
78	0x35	53
79	0x2c	44
80	0xf8	-8
81	0x0b	11
82	0x19	25
83	0x16	22
84	0x20	32
85	0x2c	44
86	0xa9	-87
87	0xc5	-59
88	0xc9	-55
89	0xe7	-25
90	0x63	99
91	0xf7	-9
92	0x0d	13
93	0xfc	-4
94	0x6c	108
95	0xf6	-10
96	0x16	22
97	0xcb	-53
98	0x28	40
99	0x81	-127
100	0x9e	-98
101	0x07	7
102	0x11	17
103	0xff	-1
104	0x0a	10
105	0xf7	-9
106	0x4a	74
107	0x03	3
108	0x38	56
109	0xa3	-93
110	0x58	88
111	0x1b	27
112	0x06	6
113	0xec	-20
114	0xf1	-15
115	0xf5	-11
116	0x3d	61
117	0x8e	-114
118	0x63	99
119	0x06	6
120	0x0e	14
121	0xc3	-61
122	0x1d	29
123	0xc1	-63
124	0x37	55
125	0x81	-127
126	0xfd	-3
127	0x0c	12
128	0x3e	62
129	0x92	-110
130	0x16	22
131	0xf2	-14
132	0x48	72
133	0xa2	-94
134	0xf9	-7
135	0xc6	-58
136	0x3c	60
137	0xdc	-36
138	0xaf	-81
139	0xea	-22
140	0x41	65
141	0xdc	-36
142	0x12	18
143	0x22	34
144	0xe6	-26
145	0x32	50
146	0x19	25
147	0x46	70
148	0xdd	-35
149	0x10	16
150	0x4f	79
151	0xe8	-24
152	0xea	-22
153	0x0c	12
154	0xee	-18
155	0x3b	59
156	0x29	41
157	0xe4	-28
158	0xd8	-40
159	0xec	-20
160	0x0c	12
161	0x23	35
162	0x4d	77
163	0x4b	75
164	0x81	-127
165	0x33	51
166	0x1d	29
167	0x39	57
168	0x9e	-98
169	0xea	-22
170	0xb9	-71
171	0xde	-34
172	0x3b	59
173	0x92	-110
174	0x49	73
175	0x15	21
176	0x30	48
177	0xb2	-78
178	0x4a	74
179	0x44	68
180	0xf2	-14
181	0x42	66
182	0xee	-18
183	0x31	49
184	0x3a	58
185	0xd3	-45
186	0x3b	59
187	0xdf	-33
188	0x25	37
189	0x3f	63
190	0x43	67
191	0x0b	11
192	0x18	24
193	0xf2	-14
194	0xbe	-66
195	0x14	20
196	0x12	18
197	0xba	-70
198	0x4a	74
199	0x48	72
200	0x09	9
201	0x81	-127
202	0xd2	-46
203	0xdf	-33
204	0x42	66
205	0x0d	13
206	0x40	64
207	0x2d	45
208	0x1a	26
209	0x9b	-101
210	0x4a	74
211	0x4a	74
212	0x5f	95
213	0xae	-82
214	0x44	68
215	0x05	5
216	0x3f	63
217	0x01	1
218	0xf8	-8
219	0xd5	-43
220	0xc1	-63
221	0x4c	76
222	0x3a	58
223	0x36	54
224	0x12	18
225	0x7e	126
226	0x1c	28
227	0xfa	-6
228	0x7f	127
229	0x2a	42
230	0x01	1
231	0xdc	-36
232	0xb9	-71
233	0xda	-38
234	0x71	113
235	0x4a	74
236	0x9f	-97
237	0x1d	29
238	0x03	3
239	0x5c	92
240	0x65	101
241	0x85	-123
242	0x29	41
243	0x6b	107
244	0xd6	-42
245	0x86	-122
246	0x5d	93
247	0xdc	-36
248	0xd7	-41
249	0xb4	-76
250	0x65	101
251	0xd4	-44
252	0xd3	-45
253	0xbc	-68
254	0x41	65
255	0x51	81

sequential/conv2d_1/Conv2D i1 [4, 3, 3, 2]
0	0x02	2
1	0x62	98
2	0xeb	-21
3	0xb7	-73
4	0xa6	-90
5	0xbc	-68
6	0x0b	11
7	0xa4	-92
8	0x7f	127
9	0x7d	125
10	0xc6	-58
11	0x0b	11
12	0xb2	-78
13	0x2a	42
14	0x56	86
15	0x90	-112
16	0xc8	-56
17	0x36	54
18	0xcc	-52
19	0xde	-34
20	0x00	0
21	0x81	-127
22	0x3d	61
23	0x11	17
24	0xef	-17
25	0x32	50
26	0xa1	-95
27	0xc7	-57
28	0xfb	-5
29	0xe3	-29
30	0xac	-84
31	0x1d	29
32	0xb6	-74
33	0xf5	-11
34	0x0a	10
35	0x2f	47
36	0xd3	-45
37	0xc6	-58
38	0x75	117
39	0x81	-127
40	0xb8	-72
41	0xca	-54
42	0xc8	-56
43	0xea	-22
44	0x23	35
45	0x9f	-97
46	0x6f	111
47	0x56	86
48	0x38	56
49	0x16	22
50	0x01	1
51	0xc6	-58
52	0x6d	109
53	0x5b	91
54	0x49	73
55	0x05	5
56	0xa0	-96
57	0x61	97
58	0x56	86
59	0x81	-127
60	0x3d	61
61	0x64	100
62	0x34	52
63	0x98	-104
64	0x93	-109
65	0x86	-122
66	0x31	49
67	0xce	-50
68	0xde	-34
69	0xf9	-7
70	0x75	117
71	0xdc	-36

sequential/conv2d/Conv2D i1 [2, 3, 3, 1]
0	0x01	1
1	0x72	114
2	0xdf	-33
3	0xf8	-8
4	0x12	18
5	0x5e	94
6	0xf7	-9
7	0x81	-127
8	0xf4	-12
9	0xc4	-60
10	0x92	-110
11	0xa6	-90
12	0x7e	126
13	0xf3	-13
14	0x15	21
15	0xfc	-4
16	0x30	48
17	0x7f	127
