0_dev_notebooks/train_outputs/20230813_163155_half_quarter/qt/models/qt_model.tflite (tflite, 9240 bytes, 6 tensors)

sequential/dense/MatMul i1 [1, 1024] scale=0.003535727 zero_point=0
000000 db e1 ff 04 f7 f4 05 f8 0f 01 fd ed 03 fd 04 0b
       -0.1308219 -0.10960754 -0.003535727 0.014142908 -0.03182154 -0.042428724 0.017678635 -0.028285816 0.053035907 0.003535727 -0.010607181 -0.067178816 0.010607181 -0.010607181 0.014142908 0.038893
000010 f1 08 02 1e fd 10 39 f0 39 37 08 07 e2 12 10 08
       -0.053035907 0.028285816 0.007071454 0.106071815 -0.010607181 0.056571633 0.20153645 -0.056571633 0.20153645 0.19446498 0.028285816 0.02475009 -0.106071815 0.06364308 0.056571633 0.028285816
000020 20 15 37 03 ec fb 08 12 1f 39 f1 11 f2 f1 36 f8
       0.113143265 0.074250266 0.19446498 0.010607181 -0.07071454 -0.017678635 0.028285816 0.06364308 0.10960754 0.20153645 -0.053035907 0.060107358 -0.04950018 -0.053035907 0.19092926 -0.028285816
000030 0e 11 c1 07 1f 07 21 1c fe 16 fb 14 3f ef fd e0
       0.04950018 0.060107358 -0.2227508 0.02475009 0.10960754 0.02475009 0.11667899 0.09900036 -0.007071454 0.077786 -0.017678635 0.07071454 0.2227508 -0.060107358 -0.010607181 -0.113143265
000040 f6 01 f8 ff 16 f3 09 3d 0b 05 fb 41 42 cd 31 28
       -0.03535727 0.003535727 -0.028285816 -0.003535727 0.077786 -0.04596445 0.03182154 0.21567935 0.038893 0.017678635 -0.017678635 0.22982226 0.23335798 -0.18032208 0.17325063 0.14142908
000050 01 50 13 e4 30 fe ef 2c dc e1 03 14 18 3a 36 1c
       0.003535727 0.28285816 0.067178816 -0.09900036 0.1697149 -0.007071454 -0.060107358 0.155572 -0.12728617 -0.10960754 0.010607181 0.07071454 0.08485745 0.20507216 0.19092926 0.09900036
000060 76 f1 46 0d 0c 33 09 f3 e0 e8 09 0a dd 1f f0 f9
       0.4172158 -0.053035907 0.2475009 0.04596445 0.042428724 0.18032208 0.03182154 -0.04596445 -0.113143265 -0.08485745 0.03182154 0.03535727 -0.12375045 0.10960754 -0.056571633 -0.02475009
000070 fd e6 09 f7 f5 30 1c f0 02 cf 0c 00 f9 c9 f1 06
       -0.010607181 -0.0919289 0.03182154 -0.03182154 -0.038893 0.1697149 0.09900036 -0.056571633 0.007071454 -0.17325063 0.042428724 0.0 -0.02475009 -0.19446498 -0.053035907 0.021214362
000080 0c 04 fe 09 20 00 13 e5 ee 07 f6 09 21 2f 2a 07
       0.042428724 0.014142908 -0.007071454 0.03182154 0.113143265 0.0 0.067178816 -0.09546463 -0.06364308 0.02475009 -0.03535727 0.03182154 0.11667899 0.16617917 0.14850053 0.02475009
000090 29 04 17 20 02 f8 00 fe ff ee 1d 06 f2 e2 00 e9
       0.14496481 0.014142908 0.081321724 0.113143265 0.007071454 -0.028285816 0.0 -0.007071454 -0.003535727 -0.06364308 0.10253608 0.021214362 -0.04950018 -0.106071815 0.0 -0.081321724
0000a0 39 fa ec 04 11 e0 f7 1e ef 1f ef 0b 0f 39 13 19
       0.20153645 -0.021214362 -0.07071454 0.014142908 0.060107358 -0.113143265 -0.03182154 0.106071815 -0.060107358 0.10960754 -0.060107358 0.038893 0.053035907 0.20153645 0.067178816 0.088393174
0000b0 d5 ea 41 13 f3 24 fe f9 0e 03 0a e0 1d af ea e3
       -0.15203626 -0.077786 0.22982226 0.067178816 -0.04596445 0.12728617 -0.007071454 -0.02475009 0.04950018 0.010607181 0.03535727 -0.113143265 0.10253608 -0.28639388 -0.077786 -0.10253608
0000c0 e3 11 fa 2c 19 0d 0a ea fa f8 ea 00 57 14 e3 ef
       -0.10253608 0.060107358 -0.021214362 0.155572 0.088393174 0.04596445 0.03535727 -0.077786 -0.021214362 -0.028285816 -0.077786 0.0 0.30760825 0.07071454 -0.10253608 -0.060107358
0000d0 4d 43 17 fd 0b fe f6 fd d4 ef f1 24 48 4c 02 01
       0.27225098 0.23689371 0.081321724 -0.010607181 0.038893 -0.007071454 -0.03535727 -0.010607181 -0.155572 -0.060107358 -0.053035907 0.12728617 0.25457233 0.26871526 0.007071454 0.003535727
0000e0 fa 07 16 fe 30 04 f8 fc fd 37 1b fa e1 0d 13 17
       -0.021214362 0.02475009 0.077786 -0.007071454 0.1697149 0.014142908 -0.028285816 -0.014142908 -0.010607181 0.19446498 0.09546463 -0.021214362 -0.10960754 0.04596445 0.067178816 0.081321724
0000f0 0a 24 1b f6 0a 04 02 f9 fc f0 3a fa f6 f3 11 e7
       0.03535727 0.12728617 0.09546463 -0.03535727 0.03535727 0.014142908 0.007071454 -0.02475009 -0.014142908 -0.056571633 0.20507216 -0.021214362 -0.03535727 -0.04596445 0.060107358 -0.088393174

sequential/conv2d_4/Conv2D i1 [16, 3, 3, 8]
000000 f7 fb f7 15 fa 00 2f cf 0d de 02 d9 0f ee e9 0d
       -9 -5 -9 21 -6 0 47 -49 13 -34 2 -39 15 -18 -23 13
000010 2c 46 4c 0b cb 33 e6 04 16 fa d8 f1 fd 4c 28 d4
       44 70 76 11 -53 51 -26 4 22 -6 -40 -15 -3 76 40 -44
000020 ee bf 00 15 eb da 33 04 ff a1 57 f8 1b ec 03 05
       -18 -65 0 21 -21 -38 51 4 -1 -95 87 -8 27 -20 3 5
000030 7f 05 e5 2f dc 54 3b e7 da 33 15 fb e2 cd 0d b5
       127 5 -27 47 -36 84 59 -25 -38 51 21 -5 -30 -51 13 -75
000040 d9 f3 00 06 bb ab d8 06 ed d4 39 09 4c b9 b0 0c
       -39 -13 0 6 -69 -85 -40 6 -19 -44 57 9 76 -71 -80 12
000050 d4 e1 f3 33 e6 32 f4 1c cd 0b 81 28 a0 2b 3f d4
       -44 -31 -13 51 -26 50 -12 28 -51 11 -127 40 -96 43 63 -44
000060 f1 c5 eb ad 34 a6 ef d1 69 be 00 ff 47 df e7 37
       -15 -59 -21 -83 52 -90 -17 -47 105 -66 0 -1 71 -33 -25 55
000070 59 29 b5 48 ec 19 47 16 d2 81 af a8 c9 df ed d5
       89 41 -75 72 -20 25 71 22 -46 -127 -81 -88 -55 -33 -19 -43
000080 d6 a2 2b 29 19 11 93 42 ef 71 1b e1 9f 19 40 db
       -42 -94 43 41 25 17 -109 66 -17 113 27 -31 -97 25 64 -37
000090 e9 b9 1a 0e cb ed 18 3a 8e 2c b9 ce 2f 95 37 4e
       -23 -71 26 14 -53 -19 24 58 -114 44 -71 -50 47 -107 55 78
0000a0 20 8d bb 3c 0e 4c d5 f2 2a d2 df f4 59 34 cf 28
       32 -115 -69 60 14 76 -43 -14 42 -46 -33 -12 89 52 -49 40
0000b0 fa 2a e9 dd e2 07 e0 04 e1 f2 1f ed f3 e3 f3 ec
       -6 42 -23 -35 -30 7 -32 4 -31 -14 31 -19 -13 -29 -13 -20
0000c0 68 63 02 08 44 1e cb 0c 3b c4 44 d5 eb ef 6a fd
       104 99 2 8 68 30 -53 12 59 -60 68 -43 -21 -17 106 -3
0000d0 b7 c2 db ac f2 81 24 fe e5 f0 2f bd 27 e3 b9 e7
       -73 -62 -37 -84 -14 -127 36 -2 -27 -16 47 -67 39 -29 -71 -25
0000e0 d9 c6 f5 fa 3e f2 12 14 f7 1e 30 38 e5 00 ff 0b
       -39 -58 -11 -6 62 -14 18 20 -9 30 48 56 -27 0 -1 11
0000f0 03 c1 f1 df f7 d6 a4 1b 37 bd d5 fd 28 f4 33 25
       3 -63 -15 -33 -9 -42 -92 27 55 -67 -43 -3 40 -12 51 37

sequential/conv2d_3/Conv2D i1 [8, 3, 3, 4]
000000 c2 29 cb d0 df af ff 7f e3 b7 fc e8 24 eb de 61
       -62 41 -53 -48 -33 -81 -1 127 -29 -73 -4 -24 36 -21 -34 97
000010 01 b2 0a 71 da d5 3a 1d f0 2e 08 3f d4 25 45 4d
       1 -78 10 113 -38 -43 58 29 -16 46 8 63 -44 37 69 77
000020 e9 ec bd e6 4a 1a 11 21 b2 9b 0c f6 3c a4 10 fe
       -23 -20 -67 -26 74 26 17 33 -78 -101 12 -10 60 -92 16 -2
000030 e8 b5 12 e5 96 f8 33 c9 c2 f5 1c 35 1a e3 7f 8d
       -24 -75 18 -27 -106 -8 51 -55 -62 -11 28 53 26 -29 127 -115
000040 e9 c2 d0 d2 86 39 b3 32 ef d7 db d3 01 62 e0 75
       -23 -62 -48 -46 -122 57 -77 50 -17 -41 -37 -45 1 98 -32 117
000050 fa 10 04 7f 2e d0 d3 1c e9 36 eb 54 d6 66 31 47
       -6 16 4 127 46 -48 -45 28 -23 54 -21 84 -42 102 49 71
000060 04 a0 bf de 0e 3c e0 23 0b d8 d5 fd 10 e8 1b 28
       4 -96 -65 -34 14 60 -32 35 11 -40 -43 -3 16 -24 27 40
000070 09 3c 07 09 d1 96 d4 81 21 20 56 34 05 12 f1 fc
       9 60 7 9 -47 -106 -44 -127 33 32 86 52 5 18 -15 -4
000080 24 b5 df 8b e5 44 0b 66 de e7 09 51 da 8b 02 0c
       36 -75 -33 -117 -27 68 11 102 -34 -25 9 81 -38 -117 2 12
000090 ca bd a4 db d2 0e b9 e2 6b 11 d1 d3 b3 2c a5 b2
       -54 -67 -92 -37 -46 14 -71 -30 107 17 -47 -45 -77 44 -91 -78
0000a0 f5 c2 1b f3 57 5c 3f 96 ab 17 ce 7f c6 fa 5f df
       -11 -62 27 -13 87 92 63 -106 -85 23 -50 127 -58 -6 95 -33
0000b0 56 6d 30 63 e6 c8 17 5a 3f 81 29 2d f6 e0 e2 c6
       86 109 48 99 -26 -56 23 90 63 -127 41 45 -10 -32 -30 -58
0000c0 57 9d e6 07 c4 b3 ee d1 1a b4 cc 06 76 65 ca 2c
       87 -99 -26 7 -60 -77 -18 -47 26 -76 -52 6 118 101 -54 44
0000d0 e6 f7 35 60 de ef 44 2a 15 3b 7f 45 90 50 c2 51
       -26 -9 53 96 -34 -17 68 42 21 59 127 69 -112 80 -62 81
0000e0 e9 11 d4 c8 00 f1 ed df c6 51 26 f2 17 dd e5 d7
       -23 17 -44 -56 0 -15 -19 -33 -58 81 38 -14 23 -35 -27 -41
0000f0 0f da 10 79 d3 a9 b5 12 a0 4d 17 f3 d8 2d f4 ba
       15 -38 16 121 -45 -87 -75 18 -96 77 23 -13 -40 45 -12 -70

sequential/conv2d_2/Conv2D i1 [4, 3, 3, 4]
000000 05 65 e9 dd 08 56 03 d6 eb 68 d7 dc cb 66 e4 ab
       5 101 -23 -35 8 86 3 -42 -21 104 -41 -36 -53 102 -28 -85
000010 c6 6a 0a bd cd 32 d4 15 05 7f 39 ca 9f e5 5e b7
       -58 106 10 -67 -51 50 -44 21 5 127 57 -54 -97 -27 94 -73
000020 c2 25 39 0a 81 fb fb 51 d9 c3 31 67 eb f7 b6 fa
       -62 37 57 10 -127 -5 -5 81 -39 -61 49 103 -21 -9 -74 -6
000030 ba 13 0e f7 aa fa ed 27 cc f6 33 0c bf d5 d3 0c
       -70 19 14 -9 -86 -6 -19 39 -52 -10 51 12 -65 -43 -45 12
000040 aa bf fc 04 d0 f7 47 d9 7f 20 20 2a 39 fc 02 dc
       -86 -65 -4 4 -48 -9 71 -39 127 32 32 42 57 -4 2 -36
000050 4c e5 b0 67 30 28 4d 41 39 45 2c 7a 48 19 0f 42
       76 -27 -80 103 48 40 77 65 57 69 44 122 72 25 15 66
000060 26 38 4c 38 c8 d8 df e8 32 95 b0 e6 32 bf dd e7
       38 56 76 56 -56 -40 -33 -24 50 -107 -80 -26 50 -65 -35 -25
000070 59 0e 3a 1c 54 04 46 07 c6 03 ef 17 04 20 d9 fe
       89 14 58 28 84 4 70 7 -58 3 -17 23 4 32 -39 -2
000080 4b 81 2a f3 8d 06 e3 bf d1 ba de bc fc a3 e9 e1
       75 -127 42 -13 -115 6 -29 -65 -47 -70 -34 -68 -4 -93 -23 -31

sequential/conv2d_1/Conv2D i1 [4, 3, 3, 2]
000000 d1 4f ec c0 d4 c4 13 9c 6c 71 1e 11 81 64 34 a5
       -47 79 -20 -64 -44 -60 19 -100 108 113 30 17 -127 100 52 -91
000010 9c fb bc c0 ee 81 38 29 e3 15 a6 c0 f7 ea d0 20
       -100 -5 -68 -64 -18 -127 56 41 -29 21 -90 -64 -9 -22 -48 32
000020 eb fa 25 39 cc c2 59 bb e1 e6 d2 de 17 c9 6f 5b
       -21 -6 37 57 -52 -62 89 -69 -31 -26 -46 -34 23 -55 111 91
000030 33 f7 08 d5 7f 51 61 03 c7 50 62 ae 29 3a 22 be
       51 -9 8 -43 127 81 97 3 -57 80 98 -82 41 58 34 -66
000040 b2 81 16 cd ed c0 62 cc
       -78 -127 22 -51 -19 -64 98 -52

sequential/conv2d/Conv2D i1 [2, 3, 3, 1]
000000 06 7a ef f9 17 6e ed 81 ff d2 a0 ac 7f fb 1a 0e
       6 122 -17 -7 23 110 -19 -127 -1 -46 -96 -84 127 -5 26 14
000010 2f 7e
       47 126
