0_dev_notebooks/mlruns/0/a7f00f574c484b47acc3c13d5ca043b9/artifacts/20230813_155655_half_average/qt/models/qt_model.tflite (tflite, 15480 bytes, 6 tensors)

sequential/dense/MatMul i1 [1, 2048] scale=0.0033122387 zero_point=0
0	0xfa	-0.019873433
1	0xf2	-0.04637134
2	0xf5	-0.036434624
3	0x10	0.05299582
4	0x0f	0.049683582
5	0x07	0.02318567
6	0x01	0.0033122387
7	0x09	0.02981015
8	0x22	0.112616114
9	0xf1	-0.049683582
10	0x0d	0.043059103
11	0xf2	-0.04637134
12	0x15	0.06955701
13	0x0f	0.049683582
14	0x1f	0.1026794
15	0x08	0.02649791
16	0xdf	-0.10930388
17	0x18	0.07949373
18	0xff	-0.0033122387
19	0x12	0.0596203
20	0xf5	-0.036434624
21	0x15	0.06955701
22	0x0c	0.039746866
23	0x33	0.16892417
24	0x02	0.0066244774
25	0x00	0.0
26	0xff	-0.0033122387
27	0x0b	0.036434624
28	0x06	0.019873433
29	0x2a	0.13911402
30	0x19	0.08280597
31	0x13	0.062932536
32	0xfa	-0.019873433
33	0x0c	0.039746866
34	0xf8	-0.02649791
35	0xfb	-0.016561193
36	0xfc	-0.013248955
37	0x03	0.009936716
38	0x0e	0.04637134
39	0x0e	0.04637134
40	0x07	0.02318567
41	0x21	0.10930388
42	0x0a	0.033122387
43	0x0e	0.04637134
44	0x09	0.02981015
45	0xdc	-0.1192406
46	0x17	0.07618149
47	0x02	0.0066244774
48	0xf3	-0.043059103
49	0x05	0.016561193
50	0xf4	-0.039746866
51	0xff	-0.0033122387
52	0x0e	0.04637134
53	0xf4	-0.039746866
54	0xfd	-0.009936716
55	0x0f	0.049683582
56	0xfc	-0.013248955
57	0x04	0.013248955
58	0xe4	-0.09274268
59	0x09	0.02981015
60	0x0c	0.039746866
61	0xd8	-0.13248955
62	0x0f	0.049683582
63	0xf8	-0.02649791
64	0xf1	-0.049683582
65	0x03	0.009936716
66	0xfa	-0.019873433
67	0xfa	-0.019873433
68	0x1a	0.08611821
69	0xec	-0.06624477
70	0xfc	-0.013248955
71	0x08	0.02649791
72	0x02	0.0066244774
73	0x1d	0.09605493
74	0xf5	-0.036434624
75	0x06	0.019873433
76	0x05	0.016561193
77	0x02	0.0066244774
78	0x16	0.07286925
79	0x11	0.056308057
80	0xe5	-0.089430444
81	0x1b	0.089430444
82	0x03	0.009936716
83	0x0a	0.033122387
84	0xff	-0.0033122387
85	0x22	0.112616114
86	0x2a	0.13911402
87	0x2e	0.15236299
88	0x1c	0.09274268
89	0x0b	0.036434624
90	0x05	0.016561193
91	0x07	0.02318567
92	0xfc	-0.013248955
93	0xf4	-0.039746866
94	0xf3	-0.043059103
95	0x07	0.02318567
96	0x0f	0.049683582
97	0xfe	-0.0066244774
98	0x2a	0.13911402
99	0x01	0.0033122387
100	0xfa	-0.019873433
101	0x29	0.13580179
102	0x3a	0.19210985
103	0xf1	-0.049683582
104	0xeb	-0.06955701
105	0x15	0.06955701
106	0x09	0.02981015
107	0x02	0.0066244774
108	0xec	-0.06624477
109	0x07	0.02318567
110	0xd4	-0.1457385
111	0x1c	0.09274268
112	0xff	-0.0033122387
113	0x06	0.019873433
114	0xf6	-0.033122387
115	0x03	0.009936716
116	0xed	-0.062932536
117	0xf1	-0.049683582
118	0x18	0.07949373
119	0x03	0.009936716
120	0xd8	-0.13248955
121	0xe4	-0.09274268
122	0x22	0.112616114
123	0x03	0.009936716
124	0xfb	-0.016561193
125	0xe0	-0.10599164
126	0xff	-0.0033122387
127	0xfb	-0.016561193
128	0x2d	0.14905074
129	0xef	-0.056308057
130	0x07	0.02318567
131	0x17	0.07618149
132	0xed	-0.062932536
133	0x05	0.016561193
134	0xfd	-0.009936716
135	0xf4	-0.039746866
136	0xe8	-0.07949373
137	0xf9	-0.02318567
138	0xe1	-0.1026794
139	0x11	0.056308057
140	0xfb	-0.016561193
141	0x05	0.016561193
142	0xf8	-0.02649791
143	0xf9	-0.02318567
144	0x33	0.16892417
145	0xeb	-0.06955701
146	0x11	0.056308057
147	0x2a	0.13911402
148	0x04	0.013248955
149	0x14	0.06624477
150	0x05	0.016561193
151	0x09	0.02981015
152	0x0c	0.039746866
153	0x01	0.0033122387
154	0x1a	0.08611821
155	0xf2	-0.04637134
156	0xf9	-0.02318567
157	0xdf	-0.10930388
158	0xeb	-0.06955701
159	0x0c	0.039746866
160	0x20	0.10599164
161	0xf6	-0.033122387
162	0xfd	-0.009936716
163	0x3b	0.19542208
164	0xfa	-0.019873433
165	0xf7	-0.02981015
166	0xe6	-0.08611821
167	0x0a	0.033122387
168	0xf6	-0.033122387
169	0x02	0.0066244774
170	0x06	0.019873433
171	0x0a	0.033122387
172	0x15	0.06955701
173	0xe5	-0.089430444
174	0x0a	0.033122387
175	0xf9	-0.02318567
176	0x07	0.02318567
177	0x0a	0.033122387
178	0x05	0.016561193
179	0x20	0.10599164
180	0x20	0.10599164
181	0x28	0.13248955
182	0xfd	-0.009936716
183	0xf4	-0.039746866
184	0xf3	-0.043059103
185	0x20	0.10599164
186	0x17	0.07618149
187	0xee	-0.0596203
188	0x01	0.0033122387
189	0xf2	-0.04637134
190	0xe9	-0.07618149
191	0x02	0.0066244774
192	0xf8	-0.02649791
193	0xec	-0.06624477
194	0x11	0.056308057
195	0x34	0.17223641
196	0x16	0.07286925
197	0xf0	-0.05299582
198	0x0f	0.049683582
199	0xfe	-0.0066244774
200	0x10	0.05299582
201	0x04	0.013248955
202	0xff	-0.0033122387
203	0xf8	-0.02649791
204	0x21	0.10930388
205	0x14	0.06624477
206	0x0a	0.033122387
207	0xf8	-0.02649791
208	0x22	0.112616114
209	0x02	0.0066244774
210	0xfc	-0.013248955
211	0x09	0.02981015
212	0x1d	0.09605493
213	0x06	0.019873433
214	0x02	0.0066244774
215	0xf3	-0.043059103
216	0x25	0.122552834
217	0x00	0.0
218	0xeb	-0.06955701
219	0xfa	-0.019873433
220	0x07	0.02318567
221	0x0e	0.04637134
222	0x0d	0.043059103
223	0x07	0.02318567
224	0xf0	-0.05299582
225	0x17	0.07618149
226	0x2a	0.13911402
227	0x23	0.11592835
228	0x12	0.0596203
229	0xfc	-0.013248955
230	0x1b	0.089430444
231	0x08	0.02649791
232	0xf4	-0.039746866
233	0x12	0.0596203
234	0x17	0.07618149
235	0x01	0.0033122387
236	0x19	0.08280597
237	0xf5	-0.036434624
238	0x09	0.02981015
239	0x00	0.0
240	0xf1	-0.049683582
241	0xfb	-0.016561193
242	0x0f	0.049683582
243	0x20	0.10599164
244	0x13	0.062932536
245	0xfe	-0.0066244774
246	0x0d	0.043059103
247	0xf1	-0.049683582
248	0x2d	0.14905074
249	0xfb	-0.016561193
250	0xf1	-0.049683582
251	0xfa	-0.019873433
252	0x02	0.0066244774
253	0xfa	-0.019873433
254	0x13	0.062932536
255	0xff	-0.0033122387

sequential/conv2d_4/Conv2D i1 [32, 3, 3, 16]
0	0xdc	-36
1	0x2a	42
2	0xab	-85
3	0x69	105
4	0x2f	47
5	0x32	50
6	0xe1	-31
7	0x07	7
8	0x3a	58
9	0x14	20
10	0xcd	-51
11	0xea	-22
12	0xc2	-62
13	0x68	104
14	0x3c	60
15	0x44	68
16	0xc1	-63
17	0xfa	-6
18	0xff	-1
19	0x6b	107
20	0xf7	-9
21	0x3b	59
22	0x01	1
23	0xe2	-30
24	0x39	57
25	0xdd	-35
26	0xef	-17
27	0x01	1
28	0xcd	-51
29	0x4d	77
30	0x0c	12
31	0xf1	-15
32	0xd2	-46
33	0x85	-123
34	0xc7	-57
35	0x1f	31
36	0x2e	46
37	0x9d	-99
38	0xf5	-11
39	0xeb	-21
40	0x04	4
41	0x0f	15
42	0xe9	-23
43	0xf6	-10
44	0xe0	-32
45	0xce	-50
46	0xa6	-90
47	0xbf	-65
48	0x32	50
49	0x25	37
50	0x18	24
51	0x4b	75
52	0x1d	29
53	0x01	1
54	0x18	24
55	0x04	4
56	0x0a	10
57	0x11	17
58	0x42	66
59	0x05	5
60	0x38	56
61	0xd5	-43
62	0x2c	44
63	0x56	86
64	0xf8	-8
65	0x2b	43
66	0x2f	47
67	0xf2	-14
68	0x0d	13
69	0xe5	-27
70	0x8d	-115
71	0xcf	-49
72	0xf7	-9
73	0xdc	-36
74	0x3d	61
75	0x24	36
76	0x66	102
77	0x04	4
78	0x2d	45
79	0xcd	-51
80	0x6e	110
81	0x9d	-99
82	0x1e	30
83	0xa4	-92
84	0x09	9
85	0xef	-17
86	0xe5	-27
87	0x9e	-98
88	0x3a	58
89	0xb9	-71
90	0x19	25
91	0x46	70
92	0x4b	75
93	0x1d	29
94	0x00	0
95	0xcf	-49
96	0x09	9
97	0xd1	-47
98	0xfb	-5
99	0x23	35
100	0xe3	-29
101	0x01	1
102	0xc3	-61
103	0x3a	58
104	0xd1	-47
105	0x1d	29
106	0xfb	-5
107	0xb2	-78
108	0xfb	-5
109	0x81	-127
110	0xb7	-73
111	0xf6	-10
112	0x4a	74
113	0x39	57
114	0xd4	-44
115	0xe3	-29
116	0x3f	63
117	0xd0	-48
118	0x1f	31
119	0x6c	108
120	0xd6	-42
121	0x02	2
122	0x10	16
123	0xaa	-86
124	0xff	-1
125	0x00	0
126	0x2e	46
127	0x1b	27
128	0x0d	13
129	0xd8	-40
130	0xc6	-58
131	0x1b	27
132	0x42	66
133	0xdd	-35
134	0x0c	12
135	0xfd	-3
136	0x23	35
137	0xc5	-59
138	0xdb	-37
139	0xeb	-21
140	0x3c	60
141	0xf9	-7
142	0xf5	-11
143	0xb6	-74
144	0xda	-38
145	0x2d	45
146	0x06	6
147	0xcf	-49
148	0xd1	-47
149	0x10	16
150	0xef	-17
151	0x1c	28
152	0xcd	-51
153	0xf3	-13
154	0xd9	-39
155	0xf4	-12
156	0x18	24
157	0xb3	-77
158	0xdc	-36
159	0xfb	-5
160	0x33	51
161	0x07	7
162	0xae	-82
163	0xf6	-10
164	0x51	81
165	0x22	34
166	0x37	55
167	0x15	21
168	0x4f	79
169	0xc8	-56
170	0xca	-54
171	0x00	0
172	0x9c	-100
173	0xf5	-11
174	0x20	32
175	0xfb	-5
176	0xce	-50
177	0x10	16
178	0xcb	-53
179	0xce	-50
180	0x95	-107
181	0x2c	44
182	0xa6	-90
183	0x99	-103
184	0xf8	-8
185	0xde	-34
186	0x0a	10
187	0xe3	-29
188	0x32	50
189	0xbd	-67
190	0xbf	-65
191	0xf5	-11
192	0x5b	91
193	0xe8	-24
194	0xe5	-27
195	0xe8	-24
196	0xaa	-86
197	0xfd	-3
198	0xbf	-65
199	0xc7	-57
200	0xc5	-59
201	0xd9	-39
202	0xdd	-35
203	0x19	25
204	0x97	-105
205	0x03	3
206	0xfc	-4
207	0xda	-38
208	0xd0	-48
209	0xe3	-29
210	0xbe	-66
211	0x42	66
212	0xc7	-57
213	0xf9	-7
214	0x4f	79
215	0x34	52
216	0x17	23
217	0x77	119
218	0x34	52
219	0x59	89
220	0xe0	-32
221	0x16	22
222	0x1a	26
223	0xff	-1
224	0xee	-18
225	0xe9	-23
226	0x4d	77
227	0x28	40
228	0xf9	-7
229	0x23	35
230	0x02	2
231	0x25	37
232	0x32	50
233	0xb4	-76
234	0x75	117
235	0x6d	109
236	0x6f	111
237	0x49	73
238	0x1b	27
239	0x7f	127
240	0x04	4
241	0xc6	-58
242	0x18	24
243	0x20	32
244	0x34	52
245	0xd5	-43
246	0xdc	-36
247	0xab	-85
248	0x11	17
249	0xe7	-25
250	0xee	-18
251	0xcd	-51
252	0xfc	-4
253	0xe8	-24
254	0xd8	-40
255	0xfd	-3

sequential/conv2d_3/Conv2D i1 [16, 3, 3, 8]
0	0xfa	-6
1	0xc6	-58
2	0x9f	-97
3	0xf6	-10
4	0x9e	-98
5	0xdb	-37
6	0x1f	31
7	0x0e	14
8	0x18	24
9	0x25	37
10	0xd7	-41
11	0x1d	29
12	0xd8	-40
13	0xd7	-41
14	0xa7	-89
15	0x7f	127
16	0x28	40
17	0x03	3
18	0x2c	44
19	0x19	25
20	0x03	3
21	0xf0	-16
22	0xf9	-7
23	0xe3	-29
24	0x3b	59
25	0x43	67
26	0xc7	-57
27	0x31	49
28	0xc0	-64
29	0x08	8
30	0x24	36
31	0xec	-20
32	0x55	85
33	0xc9	-55
34	0x16	22
35	0xe1	-31
36	0xc3	-61
37	0xf4	-12
38	0xc1	-63
39	0x12	18
40	0xfb	-5
41	0xf8	-8
42	0x0c	12
43	0xd4	-44
44	0x23	35
45	0x00	0
46	0x34	52
47	0x02	2
48	0xeb	-21
49	0x10	16
50	0xd0	-48
51	0xed	-19
52	0x1d	29
53	0xe6	-26
54	0x3e	62
55	0x7d	125
56	0x4d	77
57	0xdf	-33
58	0xd9	-39
59	0xf5	-11
60	0xcd	-51
61	0xa2	-94
62	0xe2	-30
63	0x57	87
64	0x2e	46
65	0x09	9
66	0x09	9
67	0xbc	-68
68	0x28	40
69	0x0b	11
70	0x4d	77
71	0x28	40
72	0x3e	62
73	0x24	36
74	0xc9	-55
75	0x0f	15
76	0x49	73
77	0xef	-17
78	0xd8	-40
79	0xe0	-32
80	0x00	0
81	0x58	88
82	0xe2	-30
83	0x34	52
84	0x0e	14
85	0x2a	42
86	0x1e	30
87	0xe2	-30
88	0xef	-17
89	0xdd	-35
90	0x0f	15
91	0xe7	-25
92	0x4d	77
93	0x36	54
94	0x36	54
95	0x33	51
96	0x57	87
97	0xfe	-2
98	0x1e	30
99	0xf1	-15
100	0x14	20
101	0xf0	-16
102	0xaa	-86
103	0xce	-50
104	0x1d	29
105	0x4b	75
106	0xe5	-27
107	0xf9	-7
108	0x1a	26
109	0x38	56
110	0x28	40
111	0xbe	-66
112	0x0e	14
113	0xaf	-81
114	0x1a	26
115	0x29	41
116	0x05	5
117	0xcf	-49
118	0xdb	-37
119	0xef	-17
120	0xec	-20
121	0x3e	62
122	0xda	-38
123	0xf5	-11
124	0xd2	-46
125	0xe2	-30
126	0xbc	-68
127	0x81	-127
128	0x2d	45
129	0x02	2
130	0x18	24
131	0x27	39
132	0x35	53
133	0x1f	31
134	0x19	25
135	0xa2	-94
136	0x19	25
137	0xd6	-42
138	0x1a	26
139	0x29	41
140	0xf1	-15
141	0xfb	-5
142	0x23	35
143	0x97	-105
144	0xf4	-12
145	0xaa	-86
146	0x18	24
147	0xe8	-24
148	0x01	1
149	0x1f	31
150	0x54	84
151	0x0c	12
152	0x0b	11
153	0xad	-83
154	0xe7	-25
155	0x12	18
156	0x08	8
157	0xef	-17
158	0x0e	14
159	0x0d	13
160	0x15	21
161	0x0e	14
162	0x16	22
163	0x3a	58
164	0x0e	14
165	0xe5	-27
166	0xcc	-52
167	0x38	56
168	0xfe	-2
169	0xf3	-13
170	0x24	36
171	0xf6	-10
172	0xe7	-25
173	0x18	24
174	0x48	72
175	0x46	70
176	0xeb	-21
177	0xc3	-61
178	0xd8	-40
179	0xc4	-60
180	0x08	8
181	0x1d	29
182	0x2c	44
183	0x09	9
184	0x7f	127
185	0x04	4
186	0xa6	-90
187	0x09	9
188	0xcd	-51
189	0xd6	-42
190	0xba	-70
191	0x4a	74
192	0xf3	-13
193	0x56	86
194	0xc3	-61
195	0x16	22
196	0x27	39
197	0x35	53
198	0xee	-18
199	0xe8	-24
200	0x3e	62
201	0x06	6
202	0xed	-19
203	0x1b	27
204	0x2d	45
205	0xc0	-64
206	0xbb	-69
207	0x28	40
208	0x67	103
209	0x1d	29
210	0xd9	-39
211	0x28	40
212	0xda	-38
213	0xdd	-35
214	0xdb	-37
215	0x2c	44
216	0xea	-22
217	0xc1	-63
218	0x1e	30
219	0xe4	-28
220	0xd4	-44
221	0xc2	-62
222	0x05	5
223	0x21	33
224	0x17	23
225	0xe0	-32
226	0x30	48
227	0x11	17
228	0xa5	-91
229	0xe2	-30
230	0xee	-18
231	0xc8	-56
232	0x1f	31
233	0x0f	15
234	0x3f	63
235	0x7f	127
236	0x91	-111
237	0xfc	-4
238	0x12	18
239	0xfc	-4
240	0xe2	-30
241	0x14	20
242	0xc2	-62
243	0xda	-38
244	0xaa	-86
245	0xe1	-31
246	0xd0	-48
247	0xea	-22
248	0x11	17
249	0x32	50
250	0xcc	-52
251	0x24	36
252	0xf0	-16
253	0x04	4
254	0xc4	-60
255	0x11	17

sequential/conv2d_2/Conv2D i1 [8, 3, 3, 4]
0	0xfd	-3
1	0xa1	-95
2	0x48	72
3	0x5d	93
4	0x51	81
5	0x9d	-99
6	0x0a	10
7	0x2e	46
8	0x7f	127
9	0xb9	-71
10	0x4a	74
11	0x0f	15
12	0x13	19
13	0x07	7
14	0xc2	-62
15	0x38	56
16	0xe1	-31
17	0x30	48
18	0xbe	-66
19	0x2d	45
20	0x5a	90
21	0x0e	14
22	0xff	-1
23	0x45	69
24	0x0a	10
25	0xad	-83
26	0xf4	-12
27	0xf4	-12
28	0x25	37
29	0xae	-82
30	0xca	-54
31	0xf2	-14
32	0x0e	14
33	0xca	-54
34	0xfe	-2
35	0x42	66
36	0xb5	-75
37	0xe9	-23
38	0x48	72
39	0x15	21
40	0xe3	-29
41	0xec	-20
42	0x81	-127
43	0x13	19
44	0x2f	47
45	0xf5	-11
46	0x25	37
47	0x1d	29
48	0xae	-82
49	0xcf	-49
50	0x06	6
51	0xe5	-27
52	0xb0	-80
53	0x1e	30
54	0xeb	-21
55	0xe0	-32
56	0xf2	-14
57	0xfe	-2
58	0x0e	14
59	0xf7	-9
60	0xd9	-39
61	0xf9	-7
62	0xb4	-76
63	0x0d	13
64	0xac	-84
65	0x36	54
66	0x2a	42
67	0xd0	-48
68	0x93	-109
69	0x2d	45
70	0xe9	-23
71	0xfd	-3
72	0x63	99
73	0xe6	-26
74	0xf4	-12
75	0xda	-38
76	0xd9	-39
77	0xbd	-67
78	0x40	64
79	0x0e	14
80	0x1d	29
81	0x08	8
82	0x1c	28
83	0xf6	-10
84	0xf7	-9
85	0x17	23
86	0xa0	-96
87	0xaa	-86
88	0xb8	-72
89	0xcc	-52
90	0x62	98
91	0x01	1
92	0xd2	-46
93	0xe5	-27
94	0x7f	127
95	0x05	5
96	0x0c	12
97	0x8e	-114
98	0x20	32
99	0x8f	-113
100	0x86	-122
101	0xe5	-27
102	0x17	23
103	0xf9	-7
104	0xaa	-86
105	0xd5	-43
106	0x55	85
107	0xee	-18
108	0x46	70
109	0x81	-127
110	0x5b	91
111	0x2a	42
112	0xf8	-8
113	0x07	7
114	0xcd	-51
115	0x0e	14
116	0x42	66
117	0xbb	-69
118	0x65	101
119	0x03	3
120	0xaf	-81
121	0x8f	-113
122	0x27	39
123	0xef	-17
124	0xfa	-6
125	0xdf	-33
126	0xef	-17
127	0x11	17
128	0x24	36
129	0x0b	11
130	0x10	16
131	0xf2	-14
132	0xf7	-9
133	0xc5	-59
134	0x04	4
135	0xff	-1
136	0xf3	-13
137	0x06	6
138	0xc4	-60
139	0xe1	-31
140	0xdb	-37
141	0x1d	29
142	0x0d	13
143	0x17	23
144	0x0f	15
145	0x3f	63
146	0x08	8
147	0x02	2
148	0x0e	14
149	0xfa	-6
150	0x19	25
151	0xe8	-24
152	0x37	55
153	0x1e	30
154	0xe4	-28
155	0x37	55
156	0xf9	-7
157	0x06	6
158	0xb3	-77
159	0x02	2
160	0xd1	-47
161	0x28	40
162	0x40	64
163	0x4f	79
164	0xbe	-66
165	0x3d	61
166	0x19	25
167	0x0b	11
168	0x81	-127
169	0x01	1
170	0x93	-109
171	0xf7	-9
172	0x18	24
173	0x97	-105
174	0x35	53
175	0xdd	-35
176	0xff	-1
177	0x9d	-99
178	0x56	86
179	0xf4	-12
180	0xfb	-5
181	0x54	84
182	0xdf	-33
183	0x3f	63
184	0x28	40
185	0xda	-38
186	0x0c	12
187	0xae	-82
188	0x36	54
189	0x4c	76
190	0x0c	12
191	0xfd	-3
192	0x13	19
193	0xef	-17
194	0xb3	-77
195	0x0c	12
196	0xdc	-36
197	0xce	-50
198	0x48	72
199	0x51	81
200	0xd7	-41
201	0xe1	-31
202	0xc4	-60
203	0xab	-85
204	0x7f	127
205	0x1d	29
206	0x4d	77
207	0x3b	59
208	0xfb	-5
209	0xb3	-77
210	0x66	102
211	0x3e	62
212	0x52	82
213	0xd9	-39
214	0x5d	93
215	0xf1	-15
216	0x17	23
217	0xf1	-15
218	0xfb	-5
219	0xca	-54
220	0x0e	14
221	0x1c	28
222	0x36	54
223	0x32	50
224	0x63	99
225	0x3a	58
226	0x15	21
227	0x19	25
228	0x4d	77
229	0x18	24
230	0x15	21
231	0xce	-50
232	0xc4	-60
233	0xc1	-63
234	0x73	115
235	0x1d	29
236	0xed	-19
237	0xf5	-11
238	0x0e	14
239	0x54	84
240	0x3b	59
241	0xa1	-95
242	0x35	53
243	0x3d	61
244	0xf8	-8
245	0x97	-105
246	0x6a	106
247	0xb3	-77
248	0x81	-127
249	0xb8	-72
250	0x5b	91
251	0xbf	-65
252	0xd6	-42
253	0xba	-70
254	0x2c	44
255	0xf1	-15

sequential/conv2d_1/Conv2D i1 [4, 3, 3, 2]
0	0xd5	-43
1	0x2a	42
2	0xd4	-44
3	0x81	-127
4	0xc2	-62
5	0x8b	-117
6	0xd7	-41
7	0xc0	-64
8	0x1b	27
9	0x52	82
10	0xce	-50
11	0xd4	-44
12	0x8d	-115
13	0x6c	108
14	0x30	48
15	0xa5	-91
16	0x90	-112
17	0x02	2
18	0xc9	-55
19	0xf1	-15
20	0xec	-20
21	0x87	-121
22	0x62	98
23	0x2b	43
24	0xec	-20
25	0x36	54
26	0x81	-127
27	0x9c	-100
28	0xc3	-61
29	0xd1	-47
30	0xa0	-96
31	0x38	56
32	0xb5	-75
33	0xe8	-24
34	0x2b	43
35	0x45	69
36	0xc1	-63
37	0xc4	-60
38	0x7b	123
39	0x91	-111
40	0xb3	-77
41	0xd4	-44
42	0xba	-70
43	0xf3	-13
44	0x22	34
45	0xa6	-90
46	0x7f	127
47	0x65	101
48	0x40	64
49	0x1e	30
50	0xf3	-13
51	0xd2	-46
52	0x7b	123
53	0x6b	107
54	0x57	87
55	0xff	-1
56	0xa4	-92
57	0x54	84
58	0x4d	77
59	0x9a	-102
60	0x33	51
61	0x4d	77
62	0x17	23
63	0xe0	-32
64	0x81	-127
65	0xbe	-66
66	0x27	39
67	0xc0	-64
68	0xc3	-61
69	0xef	-17
70	0x68	104
71	0xc2	-62

sequential/conv2d/Conv2D i1 [2, 3, 3, 1]
0	0xfe	-2
1	0x6f	111
2	0xe1	-31
3	0xf4	-12
4	0x0d	13
5	0x5d	93
6	0xf3	-13
7	0x81	-127
8	0xfb	-5
9	0xc8	-56
10	0x95	-107
11	0xa8	-88
12	0x7f	127
13	0xf3	-13
14	0x15	21
15	0xfd	-3
16	0x2b	43
17	0x7d	125
