0_dev_notebooks/train_outputs/20230813_160938_quarter_80epochs/qt/models/qt_model.tflite (tflite, 8992 bytes, 6 tensors)

sequential/dense/MatMul i1 [1, 1024] scale=0.008488348 zero_point=0
000000 ef f4 ec fe ee f7 fd 16 12 f3 04 f2 0e 34 04 11
       -0.1443019 -0.10186017 -0.16976696 -0.016976696 -0.15279026 -0.07639513 -0.025465043 0.18674365 0.15279026 -0.11034852 0.03395339 -0.118836865 0.118836865 0.4413941 0.03395339 0.1443019
000010 e8 08 cb 22 ea 1c 17 1d 23 2f 01 2f 12 21 fb f9
       -0.20372035 0.06790678 -0.44988242 0.2886038 -0.18674365 0.23767373 0.195232 0.24616209 0.29709217 0.39895234 0.008488348 0.39895234 0.15279026 0.2801155 -0.04244174 -0.059418432
000020 10 01 61 f4 1b 08 f0 23 36 e7 fa e9 20 01 31 2c
       0.13581356 0.008488348 0.82336974 -0.10186017 0.22918539 0.06790678 -0.13581356 0.29709217 0.45837077 -0.21220869 -0.050930087 -0.195232 0.27162713 0.008488348 0.41592905 0.3734873
000030 1a 0f db 1c fb f6 05 06 15 07 ff 0f ee 02 02 fe
       0.22069705 0.12732522 -0.31406885 0.23767373 -0.04244174 -0.08488348 0.04244174 0.050930087 0.1782553 0.059418432 -0.008488348 0.12732522 -0.15279026 0.016976696 0.016976696 -0.016976696
000040 f9 fd ef 0e f9 fa ec 1e 16 f5 f6 f7 1c 18 fd 02
       -0.059418432 -0.025465043 -0.1443019 0.118836865 -0.059418432 -0.050930087 -0.16976696 0.25465044 0.18674365 -0.09337182 -0.08488348 -0.07639513 0.23767373 0.20372035 -0.025465043 0.016976696
000050 fd ff 04 f9 f4 2d ed 14 f6 f4 fd 01 fc 3a f1 02
       -0.025465043 -0.008488348 0.03395339 -0.059418432 -0.10186017 0.38197565 -0.1612786 0.16976696 -0.08488348 -0.10186017 -0.025465043 0.008488348 -0.03395339 0.49232417 -0.12732522 0.016976696
000060 f9 06 0c 24 ff 0e 09 5e e5 13 04 19 ff db f2 10
       -0.059418432 0.050930087 0.10186017 0.30558053 -0.008488348 0.118836865 0.07639513 0.7979047 -0.22918539 0.1612786 0.03395339 0.21220869 -0.008488348 -0.31406885 -0.118836865 0.13581356
000070 fb fe 01 b0 01 07 fc 44 09 08 00 0f ff ca 07 f6
       -0.04244174 -0.016976696 0.008488348 -0.67906785 0.008488348 0.059418432 -0.03395339 0.5772076 0.07639513 0.06790678 0.0 0.12732522 -0.008488348 -0.45837077 0.059418432 -0.08488348
000080 00 00 04 07 14 f8 06 19 1e 3f fc f9 1f 10 1b 41
       0.0 0.0 0.03395339 0.059418432 0.16976696 -0.06790678 0.050930087 0.21220869 0.25465044 0.5347659 -0.03395339 -0.059418432 0.26313877 0.13581356 0.22918539 0.5517426
000090 0a ed 23 1a fc 19 ef 14 14 eb 04 0f 15 ff 00 f8
       0.08488348 -0.1612786 0.29709217 0.22069705 -0.03395339 0.21220869 -0.1443019 0.16976696 0.16976696 -0.1782553 0.03395339 0.12732522 0.1782553 -0.008488348 0.0 -0.06790678
0000a0 2f f3 3b 0e 1a fb f5 2c 04 18 fd 13 0d fe 17 00
       0.39895234 -0.11034852 0.50081253 0.118836865 0.22069705 -0.04244174 -0.09337182 0.3734873 0.03395339 0.20372035 -0.025465043 0.1612786 0.11034852 -0.016976696 0.195232 0.0
0000b0 0a 02 f6 03 0e 11 fe 26 ed 03 07 fb 0e 01 ef 0a
       0.08488348 0.016976696 -0.08488348 0.025465043 0.118836865 0.1443019 -0.016976696 0.3225572 -0.1612786 0.025465043 0.059418432 -0.04244174 0.118836865 0.008488348 -0.1443019 0.08488348
0000c0 f8 ed f8 20 03 19 fa f8 f5 f7 01 09 0a 26 01 04
       -0.06790678 -0.1612786 -0.06790678 0.27162713 0.025465043 0.21220869 -0.050930087 -0.06790678 -0.09337182 -0.07639513 0.008488348 0.07639513 0.08488348 0.3225572 0.008488348 0.03395339
0000d0 00 09 01 06 00 0c 1f db f4 23 ff 0c ea 08 08 16
       0.0 0.07639513 0.008488348 0.050930087 0.0 0.10186017 0.26313877 -0.31406885 -0.10186017 0.29709217 -0.008488348 0.10186017 -0.18674365 0.06790678 0.06790678 0.18674365
0000e0 fd 0b 0c 0e 03 d4 01 f9 07 fc 09 16 e6 e7 ff f2
       -0.025465043 0.09337182 0.10186017 0.118836865 0.025465043 -0.3734873 0.008488348 -0.059418432 0.059418432 -0.03395339 0.07639513 0.18674365 -0.22069705 -0.21220869 -0.008488348 -0.118836865
0000f0 f8 0b 07 f0 0d e8 f6 f8 0e f4 07 09 03 c5 03 f5
       -0.06790678 0.09337182 0.059418432 -0.13581356 0.11034852 -0.20372035 -0.08488348 -0.06790678 0.118836865 -0.10186017 0.059418432 0.07639513 0.025465043 -0.50081253 0.025465043 -0.09337182

sequential/conv2d_4/Conv2D i1 [16, 3, 3, 8]
000000 f2 47 0b 0c 06 00 0c e4 ed e7 45 0d 0d 1c e3 15
       -14 71 11 12 6 0 12 -28 -19 -25 69 13 13 28 -29 21
000010 20 0a 01 03 dd 2b be 10 e3 03 0e fe f9 27 22 d8
       32 10 1 3 -35 43 -66 16 -29 3 14 -2 -7 39 34 -40
000020 1a d3 1e 25 04 c4 1c ea 4c fd 78 f3 4b c6 f5 20
       26 -45 30 37 4 -60 28 -22 76 -3 120 -13 75 -58 -11 32
000030 17 1b ff 21 ed 0f 19 16 fa ed 1d 1d d8 00 e7 d0
       23 27 -1 33 -19 15 25 22 -6 -19 29 29 -40 0 -25 -48
000040 81 fe f3 cf eb b4 e0 12 dd 2b 11 24 19 ce cf 03
       -127 -2 -13 -49 -21 -76 -32 18 -35 43 17 36 25 -50 -49 3
000050 22 2c fe 03 1c 55 03 36 c7 ae ef 24 e9 17 e8 f0
       34 44 -2 3 28 85 3 54 -57 -82 -17 36 -23 23 -24 -16
000060 ff c4 05 e0 f7 81 ef f8 25 04 20 ff 50 10 ea 3d
       -1 -60 5 -32 -9 -127 -17 -8 37 4 32 -1 80 16 -22 61
000070 49 36 08 74 0e eb 29 0d 09 e4 f2 c9 db fc eb d9
       73 54 8 116 14 -21 41 13 9 -28 -14 -55 -37 -4 -21 -39
000080 c4 dd 0b 2a 12 5b de 38 cf e8 f7 da db 32 1d f1
       -60 -35 11 42 18 91 -34 56 -49 -24 -9 -38 -37 50 29 -15
000090 19 81 21 31 d2 e7 f3 35 e5 08 08 93 1d c8 31 29
       25 -127 33 49 -46 -25 -13 53 -27 8 8 -109 29 -56 49 41
0000a0 19 ff 0d fa 38 17 20 f4 03 00 fa f5 2d f1 10 34
       25 -1 13 -6 56 23 32 -12 3 0 -6 -11 45 -15 16 52
0000b0 0d f1 e9 ca e4 4a e4 03 df 9e 10 f2 dc 20 54 e8
       13 -15 -23 -54 -28 74 -28 3 -33 -98 16 -14 -36 32 84 -24
0000c0 24 60 0f 0c 31 1e 16 36 2f b6 39 fe d5 07 5f 15
       36 96 15 12 49 30 22 54 47 -74 57 -2 -43 7 95 21
0000d0 d0 c3 c2 b8 d3 cd 16 c3 84 d9 f3 99 36 22 bb c7
       -48 -61 -62 -72 -45 -51 22 -61 -124 -39 -13 -103 54 34 -69 -57
0000e0 c4 e6 a0 11 04 5d 55 db 0c 63 36 1a 84 34 fa ce
       -60 -26 -96 17 4 93 85 -37 12 99 54 26 -124 52 -6 -50
0000f0 ec b3 b2 ad 20 93 81 05 65 07 f8 75 32 16 72 2b
       -20 -77 -78 -83 32 -109 -127 5 101 7 -8 117 50 22 114 43

sequential/conv2d_3/Conv2D i1 [8, 3, 3, 4]
000000 e0 40 c8 8d ab 9d b2 fa 8f 9e b3 8b 1d e1 11 4a
       -32 64 -56 -115 -85 -99 -78 -6 -113 -98 -77 -117 29 -31 17 74
000010 d0 b7 02 20 e3 cd 28 f0 31 7f 15 38 ff 4a 57 3c
       -48 -73 2 32 -29 -51 40 -16 49 127 21 56 -1 74 87 60
000020 33 3e e4 03 37 f4 09 1f bd b2 de f1 31 a0 da cd
       51 62 -28 3 55 -12 9 31 -67 -78 -34 -15 49 -96 -38 -51
000030 c5 a3 ce ac c3 c9 3d ff d5 ea 52 41 cb 82 1b c3
       -59 -93 -50 -84 -61 -55 61 -1 -43 -22 82 65 -53 -126 27 -61
000040 45 8f 05 e6 44 7f f8 66 fa c4 e0 e6 02 22 f7 2a
       69 -113 5 -26 68 127 -8 102 -6 -60 -32 -26 2 34 -9 42
000050 df fd 0b e1 31 de e2 23 0b 57 f3 42 e5 7f 0e 11
       -33 -3 11 -31 49 -34 -30 35 11 87 -13 66 -27 127 14 17
000060 fd a3 ce 09 0e 55 1d 50 bc d4 ea c7 fd eb f1 19
       -3 -93 -50 9 14 85 29 80 -68 -44 -22 -57 -3 -21 -15 25
000070 1b 44 f3 16 d4 c3 d0 96 2e 65 6b 49 05 f7 08 d4
       27 68 -13 22 -44 -61 -48 -106 46 101 107 73 5 -9 8 -44
000080 eb 81 b3 bc 01 50 3a 5c 04 1f 3d 1d d4 9f c8 0d
       -21 -127 -77 -68 1 80 58 92 4 31 61 29 -44 -97 -56 13
000090 c5 95 d3 c8 b7 db b8 d9 fa d0 d3 e2 b1 02 01 b5
       -59 -107 -45 -56 -73 -37 -72 -39 -6 -48 -45 -30 -79 2 1 -75
0000a0 30 d2 1e 11 3f 79 7c eb 88 dc c4 42 c5 e8 67 3b
       48 -46 30 17 63 121 124 -21 -120 -36 -60 66 -59 -24 103 59
0000b0 59 7f 7a 5f b2 c7 10 4e 4c f9 7a 2c 27 f9 ae 9d
       89 127 122 95 -78 -57 16 78 76 -7 122 44 39 -7 -82 -99
0000c0 2b 9c cf 13 d1 ed 0c 9c 23 91 a3 b1 57 2b 00 0b
       43 -100 -49 19 -47 -19 12 -100 35 -111 -93 -79 87 43 0 11
0000d0 fa fa 7f 6a e5 e4 14 21 52 61 7f 53 cb 47 f8 05
       -6 -6 127 106 -27 -28 20 33 82 97 127 83 -53 71 -8 5
0000e0 14 04 c3 ce 35 fb f7 05 e5 41 4f f1 0e c3 c2 f2
       20 4 -61 -50 53 -5 -9 5 -27 65 79 -15 14 -61 -62 -14
0000f0 f7 b6 fc 2a 0e c1 d1 f0 c7 37 0a e7 d3 ea 06 9a
       -9 -74 -4 42 14 -63 -47 -16 -57 55 10 -25 -45 -22 6 -102

sequential/conv2d_2/Conv2D i1 [4, 3, 3, 2]
000000 e6 26 c6 7f 6c 65 fe 1f 32 6a 1a 55 ea 1d 13 a3
       -26 38 -58 127 108 101 -2 31 50 106 26 85 -22 29 19 -93
000010 71 5f 03 f6 46 2d 26 d6 7f 31 53 27 bf f1 38 10
       113 95 3 -10 70 45 38 -42 127 49 83 39 -65 -15 56 16
000020 53 e4 f4 05 77 19 29 0b 96 01 6c c5 21 1a 8f 35
       83 -28 -12 5 119 25 41 11 -106 1 108 -59 33 26 -113 53
000030 7f 0d 66 41 f6 51 61 cb f0 b6 7f 31 66 17 2a 2a
       127 13 102 65 -10 81 97 -53 -16 -74 127 49 102 23 42 42
000040 7d f8 05 0a 33 32 78 50
       125 -8 5 10 51 50 120 80

sequential/conv2d_1/Conv2D i1 [2, 3, 3, 1]
000000 ae c7 57 c1 cf 6d d4 81 81 b8 72 db da c8 96 96
       -82 -57 87 -63 -49 109 -44 -127 -127 -72 114 -37 -38 -56 -106 -106
000010 7f 7b
       127 123

sequential/conv2d/Conv2D i1 [1, 3, 3, 1] scale=0.0056095086 zero_point=0
000000 0b c8 44 b2 dc bb 00 7f 0b
       0.061704595 -0.31413248 0.3814466 -0.43754166 -0.20194231 -0.38705608 0.0 0.7124076 0.061704595
