0_dev_notebooks/mlruns/0/c36ffe6f7b9e4bf39590e496e8edca72/artifacts/20230813_154720_half_doubled/qt/models/qt_model.tflite (tflite, 15448 bytes, 6 tensors)

sequential/dense/MatMul i1 [1, 2048] scale=0.0023201401 zero_point=0
-0.039442383 -0.0023201401 0.025521541 0.018561121 0.060323644 0.053363223 0.053363223 0.025521541
0.053363223 -0.037122242 0.020881262 -0.01624098 0.020881262 -0.01624098 0.009280561 -0.0046402803
-0.102086164 0.053363223 0.0 0.025521541 -0.046402805 0.09512574 0.0069604204 0.013920841
0.03248196 0.07192434 -0.027841682 0.009280561 0.0046402803 0.07192434 0.037122242 0.01624098
-0.106726445 0.0348021 0.078884766 -0.011600701 0.0 0.0 -0.030161822 0.041762523
0.081204906 -0.011600701 0.009280561 0.037122242 0.011600701 -0.14616883 0.044082664 -0.102086164
0.08816533 0.0348021 -0.037122242 -0.055683363 0.0348021 0.020881262 0.03248196 0.0348021
0.013920841 0.07192434 0.15544939 0.037122242 0.03248196 -0.102086164 -0.0046402803 -0.058003504
-0.09976602 -0.0069604204 0.023201402 0.053363223 0.060323644 -0.0696042 -0.060323644 0.030161822
0.06496392 0.030161822 -0.051043082 -0.013920841 0.01624098 -0.09280561 0.018561121 0.055683363
0.13224798 0.03248196 0.020881262 -0.037122242 -0.0023201401 -0.025521541 0.044082664 0.060323644
-0.041762523 -0.076564625 0.03248196 0.023201402 -0.037122242 -0.020881262 -0.0348021 0.044082664
0.12528756 0.06728406 0.074244484 0.06496392 -0.074244484 0.09512574 0.058003504 -0.058003504
-0.078884766 -0.011600701 -0.009280561 -0.023201402 -0.023201402 0.09976602 0.12992784 0.039442383
0.15080911 -0.051043082 0.0023201401 0.0069604204 -0.01624098 0.0046402803 0.09048547 -0.06728406
-0.046402805 -0.051043082 0.15312925 -0.023201402 0.0046402803 -0.12992784 -0.013920841 -0.060323644
0.1276077 -0.046402805 -0.03248196 0.011600701 0.09048547 0.051043082 -0.027841682 -0.037122242
-0.07192434 0.01624098 0.009280561 0.027841682 0.0 -0.03248196 -0.03248196 0.053363223
0.22737373 -0.023201402 0.12992784 0.06728406 -0.037122242 -0.009280561 -0.044082664 0.039442383
-0.020881262 -0.102086164 0.11832715 0.078884766 -0.020881262 -0.0023201401 0.018561121 0.037122242
-0.020881262 -0.053363223 -0.12064729 0.037122242 0.037122242 -0.04872294 -0.08352505 0.11832715
-0.023201402 0.0069604204 -0.011600701 0.027841682 0.058003504 0.0023201401 -0.058003504 0.046402805
0.13456813 0.09048547 -0.013920841 -0.08816533 0.058003504 0.08584519 0.027841682 -0.04872294
-0.011600701 0.060323644 0.0348021 -0.030161822 -0.0069604204 0.0023201401 -0.027841682 0.020881262
-0.04872294 -0.1276077 -0.03248196 0.15080911 0.078884766 -0.037122242 -0.0069604204 0.053363223
0.104406305 -0.009280561 0.0023201401 0.0069604204 0.013920841 0.09280561 -0.046402805 -0.030161822
-0.037122242 0.030161822 -0.0348021 0.0696042 0.044082664 -0.013920841 -0.018561121 0.07192434
0.102086164 -0.0069604204 -0.058003504 -0.030161822 -0.0069604204 0.0023201401 0.08352505 0.037122242
0.0 0.0069604204 0.12528756 0.076564625 0.06264378 -0.041762523 0.009280561 0.009280561
-0.0348021 0.013920841 -0.0023201401 -0.030161822 0.0 0.0023201401 0.03248196 0.0348021
-0.041762523 0.037122242 -0.0046402803 0.041762523 0.046402805 -0.051043082 -0.0069604204 -0.037122242
0.0 0.027841682 -0.07192434 -0.044082664 0.1392084 -0.01624098 0.027841682 0.0
00000000: efff 0b08 1a17 170b 17f0 09f9 09f9 04fe
00000010: d417 000b ec29 0306 0e1f f404 021f 1007
00000020: d20f 22fb 0000 f312 23fb 0410 05c1 13d4
00000030: 260f f0e8 0f09 0e0f 061f 4310 0ed4 fee7
00000040: d5fd 0a17 1ae2 e60d 1c0d eafa 07d8 0818
00000050: 390e 09f0 fff5 131a eedf 0e0a f0f7 f113
00000060: 361d 201c e029 19e7 defb fcf6 f62b 3811
00000070: 41ea 0103 f902 27e3 ecea 42f6 02c8 fae6
00000080: 37ec f205 2716 f4f0 e107 040c 00f2 f217
00000090: 62f6 381d f0fc ed11 f7d4 3322 f7ff 0810
000000a0: f7e9 cc10 10eb dc33 f603 fb0c 1901 e714
000000b0: 3a27 fada 1925 0ceb fb1a 0ff3 fd01 f409
000000c0: ebc9 f241 22f0 fd17 2dfc 0103 0628 ecf3
000000d0: f00d f11e 13fa f81f 2cfd e7f3 fd01 2410
000000e0: 0003 3621 1bee 0404 f106 fff3 0001 0e0f
000000f0: ee10 fe12 14ea fdf0 000c e1ed 3cf9 0c00

sequential/conv2d_4/Conv2D i1 [32, 3, 3, 16]
-71 13 -52 66 97 92 11 -52
91 11 -69 -51 -84 -43 -85 52
70 5 18 -8 28 59 18 -56
49 -27 -75 -5 -66 47 -83 -5
-60 -83 -49 -101 108 -96 15 75
9 -34 44 22 -4 -47 -26 -96
127 -54 -71 57 15 28 32 3
-6 4 -11 -30 33 -95 -17 55
65 18 38 -13 29 -16 -101 -5
-24 -33 4 13 67 1 57 -36
57 -46 -28 -69 -3 35 48 -65
64 -25 56 68 -2 55 25 -37
-35 -42 -53 -31 -35 7 -71 -7
-56 -42 20 -69 -106 -69 -15 -9
61 8 -45 -6 89 -54 -51 48
-83 -30 -35 -89 -39 69 63 30
-11 -68 -32 39 87 -58 78 76
34 -32 -14 19 64 33 54 -82
-90 15 17 -51 -86 -31 -18 15
-79 -58 -27 22 67 -26 -47 0
35 -10 -50 -55 73 23 37 8
53 -62 -5 -13 -22 5 -25 -46
12 -4 -89 -44 -3 35 -30 -127
-69 -6 -29 -15 6 -60 -84 -21
92 -68 -68 -9 -40 -40 2 17
-70 -6 -33 46 -31 -34 11 -36
-37 -26 -24 78 -56 9 70 11
6 89 26 79 -50 -40 62 -30
36 6 -7 27 -27 30 -52 41
23 -13 37 45 87 58 7 56
4 -28 -7 -36 64 -1 32 -45
23 -9 -4 -13 28 -90 6 34
00000000: b90d cc42 615c 0bcc 5b0b bbcd acd5 ab34
00000010: 4605 12f8 1c3b 12c8 31e5 b5fb be2f adfb
00000020: c4ad cf9b 6ca0 0f4b 09de 2c16 fcd1 e6a0
00000030: 7fca b939 0f1c 2003 fa04 f5e2 21a1 ef37
00000040: 4112 26f3 1df0 9bfb e8df 040d 4301 39dc
00000050: 39d2 e4bb fd23 30bf 40e7 3844 fe37 19db
00000060: ddd6 cbe1 dd07 b9f9 c8d6 14bb 96bb f1f7
00000070: 3d08 d3fa 59ca cd30 ade2 dda7 d945 3f1e
00000080: f5bc e027 57c6 4e4c 22e0 f213 4021 36ae
00000090: a60f 11cd aae1 ee0f b1c6 e516 43e6 d100
000000a0: 23f6 cec9 4917 2508 35c2 fbf3 ea05 e7d2
000000b0: 0cfc a7d4 fd23 e281 bbfa e3f1 06c4 aceb
000000c0: 5cbc bcf7 d8d8 0211 bafa df2e e1de 0bdc
000000d0: dbe6 e84e c809 460b 0659 1a4f ced8 3ee2
000000e0: 2406 f91b e51e cc29 17f3 252d 573a 0738
000000f0: 04e4 f9dc 40ff 20d3 17f7 fcf3 1ca6 0622

sequential/conv2d_3/Conv2D i1 [16, 3, 3, 8]
7 -22 -89 74 -100 -33 52 23
-49 -11 -3 38 -99 -31 -84 66
27 4 54 74 -23 -19 -19 -40
122 61 -51 99 -5 -5 30 27
59 -32 37 -38 -41 -12 -127 -65
-16 -13 -29 -83 34 -35 41 -24
-42 -43 -69 7 22 -68 55 109
27 16 -70 -31 -1 -114 -60 69
27 2 -10 -62 26 1 76 89
9 -64 -44 -35 32 2 -29 -13
-73 69 -42 30 1 37 59 -57
-40 -127 11 -58 60 91 77 68
67 -74 38 -69 13 7 -96 -14
17 48 -27 9 -22 74 53 -91
20 -52 -9 56 -80 -88 -49 -1
-9 -22 -52 -21 -85 -37 -83 -21
31 -87 20 33 56 33 34 -86
85 -51 7 49 -42 15 33 -17
-45 -80 -16 -82 -49 -33 29 -20
-29 -76 1 30 13 -2 43 -53
0 -34 80 114 7 -2 -38 -24
-43 -28 13 -70 -58 4 48 -9
-70 -80 -39 -65 -32 10 48 -45
116 109 -41 69 -63 -35 -55 -31
-30 25 -72 8 -18 44 -31 -69
8 8 -38 31 65 -127 -47 -42
55 88 -57 33 -53 -60 -39 -18
-62 -103 -1 -90 -75 -60 -7 54
13 -65 21 -33 -105 -31 -31 67
4 -7 74 39 -59 47 50 -22
-31 85 -67 -96 -24 -70 -89 -115
-20 86 -61 -15 72 54 -55 -75
00000000: 07ea a74a 9cdf 3417 cff5 fd26 9de1 ac42
00000010: 1b04 364a e9ed edd8 7a3d cd63 fbfb 1e1b
00000020: 3be0 25da d7f4 81bf f0f3 e3ad 22dd 29e8
00000030: d6d5 bb07 16bc 376d 1b10 bae1 ff8e c445
00000040: 1b02 f6c2 1a01 4c59 09c0 d4dd 2002 e3f3
00000050: b745 d61e 0125 3bc7 d881 0bc6 3c5b 4d44
00000060: 43b6 26bb 0d07 a0f2 1130 e509 ea4a 35a5
00000070: 14cc f738 b0a8 cfff f7ea cceb abdb adeb
00000080: 1fa9 1421 3821 22aa 55cd 0731 d60f 21ef
00000090: d3b0 f0ae cfdf 1dec e3b4 011e 0dfe 2bcb
000000a0: 00de 5072 07fe dae8 d5e4 0dba c604 30f7
000000b0: bab0 d9bf e00a 30d3 746d d745 c1dd c9e1
000000c0: e219 b808 ee2c e1bb 0808 da1f 4181 d1d6
000000d0: 3758 c721 cbc4 d9ee c299 ffa6 b5c4 f936
000000e0: 0dbf 15df 97e1 e143 04f9 4a27 c52f 32ea
000000f0: e155 bda0 e8ba a78d ec56 c3f1 4836 c9b5

sequential/conv2d_2/Conv2D i1 [8, 3, 3, 4]
24 -57 127 31 1 -68 -37 5
-48 -2 59 -25 55 51 -31 49
-24 108 -115 56 54 60 -47 56
89 -63 -23 27 85 -43 -25 -3
-44 -1 -33 0 -76 11 76 61
33 -30 -75 53 -23 -30 -51 56
-38 -19 7 0 3 46 -55 -26
-64 -20 -17 25 -127 -32 -120 113
-35 103 27 -27 -107 31 -11 -31
68 7 0 -20 3 -58 48 53
6 3 -10 62 2 48 -127 -88
-57 -46 69 4 38 3 81 -60
34 -61 29 -81 -28 5 28 -43
-57 -22 32 -62 98 -60 121 73
-12 43 -88 -32 35 -93 71 -11
-101 -127 43 -17 58 -37 -18 -20
13 3 14 -107 0 -102 30 -8
-15 -29 -67 -100 -11 53 16 12
-6 110 -16 3 76 25 25 -74
114 42 -76 89 127 16 -90 -29
63 84 9 116 -125 108 -52 30
-105 118 -101 -18 94 -69 57 31
52 -85 74 -8 -27 48 -67 31
63 -67 -18 -112 5 83 32 14
-36 -42 -59 22 11 -42 53 59
-36 -83 -56 -127 43 61 49 46
-64 -95 42 27 78 -50 102 -64
53 -43 -32 -68 -6 37 30 -15
38 64 19 5 60 9 13 -46
-46 -127 86 50 -36 -39 -20 69
14 -59 2 82 -30 -91 49 -62
-74 -57 59 -48 -94 -61 66 -21
00000000: 18c7 7f1f 01bc db05 d0fe 3be7 3733 e131
00000010: e86c 8d38 363c d138 59c1 e91b 55d5 e7fd
00000020: d4ff df00 b40b 4c3d 21e2 b535 e9e2 cd38
00000030: daed 0700 032e c9e6 c0ec ef19 81e0 8871
00000040: dd67 1be5 951f f5e1 4407 00ec 03c6 3035
00000050: 0603 f63e 0230 81a8 c7d2 4504 2603 51c4
00000060: 22c3 1daf e405 1cd5 c7ea 20c2 62c4 7949
00000070: f42b a8e0 23a3 47f5 9b81 2bef 3adb eeec
00000080: 0d03 0e95 009a 1ef8 f1e3 bd9c f535 100c
00000090: fa6e f003 4c19 19b6 722a b459 7f10 a6e3
000000a0: 3f54 0974 836c cc1e 9776 9bee 5ebb 391f
000000b0: 34ab 4af8 e530 bd1f 3fbd ee90 0553 200e
000000c0: dcd6 c516 0bd6 353b dcad c881 2b3d 312e
000000d0: c0a1 2a1b 4ece 66c0 35d5 e0bc fa25 1ef1
000000e0: 2640 1305 3c09 0dd2 d281 5632 dcd9 ec45
000000f0: 0ec5 0252 e2a5 31c2 b6c7 3bd0 a2c3 42eb

sequential/conv2d_1/Conv2D i1 [4, 3, 3, 2]
-63 26 -71 -77 -80 -77 -63 -109
60 74 -57 -13 -108 43 26 -94
-127 12 -76 -32 -47 -120 71 99
-12 39 -127 -104 -13 -88 -76 51
-10 -27 41 62 -43 -35 85 -71
-84 -37 -56 -14 20 -65 127 58
56 17 -11 -42 107 94 81 5
-116 97 122 -123 46 84 31 -41
-107 -116 38 -64 -81 -100 127 -80
00000000: c11a b9b3 b0b3 c193 3c4a c7f3 942b 1aa2
00000010: 810c b4e0 d188 4763 f427 8198 f3a8 b433
00000020: f6e5 293e d5dd 55b9 acdb c8f2 14bf 7f3a
00000030: 3811 f5d6 6b5e 5105 8c61 7a85 2e54 1fd7
00000040: 958c 26c0 af9c 7fb0

sequential/conv2d/Conv2D i1 [2, 3, 3, 1]
-1 113 -53 -6 -1 83 5 -127
4 -33 -95 -76 127 -11 21 1
38 115
00000000: ff71 cbfa ff53 0581 04df a1b4 7ff5 1501
00000010: 2673
