0_dev_notebooks/mlruns/0/0606d79e4d2148e1b0bf31232e539de6/artifacts/20230813_164127_half_quarter_60epoch/qt/models/qt_model.tflite (tflite, 9240 bytes, 6 tensors)

sequential/dense/MatMul i1 [1, 1024] scale=0.0027818643 zero_point=0
00000000: d7d9 fc06 f2fc fef3 09ef 07e9 04fb 0503
00000010: ec16 fa11 ef17 3ef0 2c4d 0d07 f602 100a
00000020: 0f10 4c00 e6f7 fd29 3239 f317 fbf2 250f
00000030: 0015 b700 2a11 1e22 f80f fd11 4b06 06db
00000040: e71b f709 05f0 f440 1507 fd14 53d6 1628
00000050: fd3d 2deb 2bed e91d dbe0 0619 142f 2527
00000060: 52ed 440a 1830 0be9 d4ef 1306 d61c 02ff
00000070: 05e9 0afc f632 24e9 fdc4 0a0a f4cf f6ff
00000080: 2102 f613 1204 0fe2 f60b f605 2732 2409
00000090: 3904 202a 1b05 f90a 10eb 2105 f2de 09ec
000000a0: 33f1 edff 16d8 e81a e323 ee15 0e42 0e11
000000b0: d5eb 2713 eb28 03f3 100a 10dc 1da1 e5f4
000000c0: db02 fa35 1e01 03f3 1aed ecf5 620e e8f3
000000d0: 4c51 0c00 f7f7 f8fa def0 ef21 3a58 0805
000000e0: f40c 0dfb 310c f4fd fd3f 16ef db16 0c12
000000f0: 0227 23fb 0b04 04f6 f8e9 3ff3 0002 12dc
-0.11405644 -0.1084927 -0.011127457 0.016691186 -0.0389461 -0.011127457 -0.0055637285 -0.036164235
0.025036778 -0.047291692 0.01947305 -0.063982874 0.011127457 -0.013909321 0.013909321 0.008345593
-0.055637285 0.061201014 -0.016691186 0.047291692 -0.047291692 0.063982874 0.17247558 -0.044509828
0.12240203 0.21420355 0.036164235 0.01947305 -0.027818643 0.0055637285 0.044509828 0.027818643
0.041727964 0.044509828 0.21142168 0.0 -0.07232847 -0.025036778 -0.008345593 0.11405644
0.13909322 0.15856627 -0.036164235 0.063982874 -0.013909321 -0.0389461 0.10292898 0.041727964
0.0 0.05841915 -0.2030761 0.0 0.1168383 0.047291692 0.08345593 0.094583385
-0.022254914 0.041727964 -0.008345593 0.047291692 0.20863982 0.016691186 0.016691186 -0.10292898
-0.06954661 0.07511033 -0.025036778 0.025036778 0.013909321 -0.044509828 -0.03338237 0.17803931
0.05841915 0.01947305 -0.008345593 0.055637285 0.23089473 -0.1168383 0.061201014 0.11127457
-0.008345593 0.16969372 0.1251839 -0.05841915 0.11962016 -0.05285542 -0.063982874 0.08067407
-0.10292898 -0.089019656 0.016691186 0.06954661 0.055637285 0.13074762 0.10292898 0.1084927
0.22811288 -0.05285542 0.18916677 0.027818643 0.06676474 0.13352948 0.030600507 -0.063982874
-0.12240203 -0.047291692 0.05285542 0.016691186 -0.1168383 0.0778922 0.0055637285 -0.0027818643
0.013909321 -0.063982874 0.027818643 -0.011127457 -0.027818643 0.13909322 0.10014711 -0.063982874
-0.008345593 -0.16691186 0.027818643 0.027818643 -0.03338237 -0.13631135 -0.027818643 -0.0027818643
0.091801524 0.0055637285 -0.027818643 0.05285542 0.050073557 0.011127457 0.041727964 -0.08345593
-0.027818643 0.030600507 -0.027818643 0.013909321 0.1084927 0.13909322 0.10014711 0.025036778
0.15856627 0.011127457 0.089019656 0.1168383 0.07511033 0.013909321 -0.01947305 0.027818643
0.044509828 -0.05841915 0.091801524 0.013909321 -0.0389461 -0.094583385 0.025036778 -0.055637285
0.14187507 -0.041727964 -0.05285542 -0.0027818643 0.061201014 -0.11127457 -0.06676474 0.07232847
-0.08067407 0.097365245 -0.050073557 0.05841915 0.0389461 0.18360305 0.0389461 0.047291692
-0.11962016 -0.05841915 0.1084927 0.05285542 -0.05841915 0.11127457 0.008345593 -0.036164235
0.044509828 0.027818643 0.044509828 -0.10014711 0.08067407 -0.2642771 -0.07511033 -0.03338237
-0.10292898 0.0055637285 -0.016691186 0.14743881 0.08345593 0.0027818643 0.008345593 -0.036164235
0.07232847 -0.05285542 -0.055637285 -0.030600507 0.2726227 0.0389461 -0.06676474 -0.036164235
0.21142168 0.22533101 0.03338237 0.0 -0.025036778 -0.025036778 -0.022254914 -0.016691186
-0.094583385 -0.044509828 -0.047291692 0.091801524 0.16134813 0.24480405 0.022254914 0.013909321
-0.03338237 0.03338237 0.036164235 -0.013909321 0.13631135 0.03338237 -0.03338237 -0.008345593
-0.008345593 0.17525744 0.061201014 -0.047291692 -0.10292898 0.061201014 0.03338237 0.050073557
0.0055637285 0.1084927 0.097365245 -0.013909321 0.030600507 0.011127457 0.011127457 -0.027818643
-0.022254914 -0.063982874 0.17525744 -0.036164235 0.0 0.0055637285 0.050073557 -0.10014711

sequential/conv2d_4/Conv2D i1 [16, 3, 3, 8]
00000000: f811 f72a f6f8 44cb 0ae3 0ed3 f4ec d91a
00000010: 4858 620c ce41 f0fb 02f0 dcf1 f15f 3fcd
00000020: d6b3 f620 edda 2e02 f893 7ee7 2acd 000c
00000030: 7f09 d03c ca53 3fe6 ba2e 1809 cccb faa9
00000040: b4f5 f814 a88e c4f6 f5dd 4213 55bd bb0e
00000050: d4dd e92a e533 f61a aa0d 8125 ba21 47c6
00000060: 05c2 f89f 38a4 f0e5 68c0 f303 4cd2 d758
00000070: 503a ab56 fd25 431b db86 baa8 cce0 edd5
00000080: cfb3 2530 0e25 9144 ee7a 15de a90c 3cd4
00000090: edbb 2a14 d3da 1450 882c b4bf 3d8c 4f4b
000000a0: 2388 bf31 265b e9ea 18cb ee02 6b28 e338
000000b0: 0924 e5ea d419 e4fb f40d 34e7 e2ce 00ed
000000c0: 5f7a fe09 3e03 c00c 43a7 43cf ebe5 6d0b
000000d0: dbaa dd97 ef81 30f8 e2ee 2fb5 2dea b7e5
000000e0: d6d5 ea05 3e07 1720 0d1a 2d36 e3fe f806
000000f0: fabc f3e2 fdde bd15 38c2 d810 2afa 2f29
-8 17 -9 42 -10 -8 68 -53
10 -29 14 -45 -12 -20 -39 26
72 88 98 12 -50 65 -16 -5
2 -16 -36 -15 -15 95 63 -51
-42 -77 -10 32 -19 -38 46 2
-8 -109 126 -25 42 -51 0 12
127 9 -48 60 -54 83 63 -26
-70 46 24 9 -52 -53 -6 -87
-76 -11 -8 20 -88 -114 -60 -10
-11 -35 66 19 85 -67 -69 14
-44 -35 -23 42 -27 51 -10 26
-86 13 -127 37 -70 33 71 -58
5 -62 -8 -97 56 -92 -16 -27
104 -64 -13 3 76 -46 -41 88
80 58 -85 86 -3 37 67 27
-37 -122 -70 -88 -52 -32 -19 -43
-49 -77 37 48 14 37 -111 68
-18 122 21 -34 -87 12 60 -44
-19 -69 42 20 -45 -38 20 80
-120 44 -76 -65 61 -116 79 75
35 -120 -65 49 38 91 -23 -22
24 -53 -18 2 107 40 -29 56
9 36 -27 -22 -44 25 -28 -5
-12 13 52 -25 -30 -50 0 -19
95 122 -2 9 62 3 -64 12
67 -89 67 -49 -21 -27 109 11
-37 -86 -35 -105 -17 -127 48 -8
-30 -18 47 -75 45 -22 -73 -27
-42 -43 -22 5 62 7 23 32
13 26 45 54 -29 -2 -8 6
-6 -68 -13 -30 -3 -34 -67 21
56 -62 -40 16 42 -6 47 41

sequential/conv2d_3/Conv2D i1 [8, 3, 3, 4]
00000000: d237 c7d3 ddbe fa7f dec3 f7e2 2ddf e566
00000010: 01b0 1563 dbd9 3b21 eb2e 0746 d123 4d4b
00000020: f0fd baf3 420e 152c 9fa7 02e8 4599 0ee7
00000030: f1c9 16db 9602 44d3 bdf4 1539 1de1 7f84
00000040: fcba d9ca 8443 b44b f3c7 c2d0 ff73 db7f
00000050: f816 0e77 4bd4 d43e ee4d e55e de7d 3250
00000060: 1c92 bbe4 1a52 e336 15cd bdf4 15e4 1a2d
00000070: 114c 0215 c897 c886 2429 5f3c 100c f1ed
00000080: 29a8 e38c cd51 177a daea 1c62 d181 0e21
00000090: d4ba 93de d41c b3da 6916 bec6 aa2d aba4
000000a0: f8bd 2200 545c 569c a720 cd7f b901 69f3
000000b0: 4f74 3361 d9ca 245c 418d 2737 03ee e3c6
000000c0: 678b ee11 b4b6 e8ca 26b4 c90f 7f6a cb2c
000000d0: d5eb 4867 d0f2 551d 1b2f 7e45 884b c052
000000e0: f60c d2ae fce2 dfd9 be3d 2cf5 20dd dde3
000000f0: 0ce1 117f d89f a60b 9554 10ee d92f fcb3
-46 55 -57 -45 -35 -66 -6 127
-34 -61 -9 -30 45 -33 -27 102
1 -80 21 99 -37 -39 59 33
-21 46 7 70 -47 35 77 75
-16 -3 -70 -13 66 14 21 44
-97 -89 2 -24 69 -103 14 -25
-15 -55 22 -37 -106 2 68 -45
-67 -12 21 57 29 -31 127 -124
-4 -70 -39 -54 -124 67 -76 75
-13 -57 -62 -48 -1 115 -37 127
-8 22 14 119 75 -44 -44 62
-18 77 -27 94 -34 125 50 80
28 -110 -69 -28 26 82 -29 54
21 -51 -67 -12 21 -28 26 45
17 76 2 21 -56 -105 -56 -122
36 41 95 60 16 12 -15 -19
41 -88 -29 -116 -51 81 23 122
-38 -22 28 98 -47 -127 14 33
-44 -70 -109 -34 -44 28 -77 -38
105 22 -66 -58 -86 45 -85 -92
-8 -67 34 0 84 92 86 -100
-89 32 -51 127 -71 1 105 -13
79 116 51 97 -39 -54 36 92
65 -115 39 55 3 -18 -29 -58
103 -117 -18 17 -76 -74 -24 -54
38 -76 -55 15 127 106 -53 44
-43 -21 72 103 -48 -14 85 29
27 47 126 69 -120 75 -64 82
-10 12 -46 -82 -4 -30 -33 -39
-66 61 44 -11 32 -35 -35 -29
12 -31 17 127 -40 -97 -90 11
-107 84 16 -18 -39 47 -4 -77

sequential/conv2d_2/Conv2D i1 [4, 3, 3, 4]
00000000: fa69 eef2 f957 0dd1 f559 dad7 c56a e39b
00000010: cf70 0ebe d21f d529 1a7f 3cc5 b1dc 5fb8
00000020: cc23 3d1b 81f1 f851 e9c7 3969 0afb b5fb
00000030: a7fd 14ea a4f5 e829 c903 3c0f b3d1 de0e
00000040: b8b6 ff02 d702 51cc 6c27 1924 1a00 02df
00000050: 34ed b56c 3826 5041 334e 2d7f 3b1c 1f3f
00000060: 2a3d 543f c6db dae8 319b b5dd 39b0 d9df
00000070: 6215 491f 5b09 54fe b40e ef2a 0834 cf04
00000080: 5789 37fd 81fa d9c0 d7a9 daba 03b6 e2da
-6 105 -18 -14 -7 87 13 -47
-11 89 -38 -41 -59 106 -29 -101
-49 112 14 -66 -46 31 -43 41
26 127 60 -59 -79 -36 95 -72
-52 35 61 27 -127 -15 -8 81
-23 -57 57 105 10 -5 -75 -5
-89 -3 20 -22 -92 -11 -24 41
-55 3 60 15 -77 -47 -34 14
-72 -74 -1 2 -41 2 81 -52
108 39 25 36 26 0 2 -33
52 -19 -75 108 56 38 80 65
51 78 45 127 59 28 31 63
42 61 84 63 -58 -37 -38 -24
49 -101 -75 -35 57 -80 -39 -33
98 21 73 31 91 9 84 -2
-76 14 -17 42 8 52 -49 4
87 -119 55 -3 -127 -6 -39 -64
-41 -87 -38 -70 3 -74 -30 -38

sequential/conv2d_1/Conv2D i1 [4, 3, 3, 2]
00000000: cc52 efc1 cecf 099a 6571 1a10 8163 32a7
00000010: a106 b9be f081 3a35 e218 96b5 eee5 c725
00000020: e7fa 2244 cdc2 62b5 dce1 cfdf 19c2 7159
00000030: 3bfd 09d4 7f52 5ffe c151 66ab 2a3a 24bf
00000040: b581 1ac7 eaba 6ccb
-52 82 -17 -63 -50 -49 9 -102
101 113 26 16 -127 99 50 -89
-95 6 -71 -66 -16 -127 58 53
-30 24 -106 -75 -18 -27 -57 37
-25 -6 34 68 -51 -62 98 -75
-36 -31 -49 -33 25 -62 113 89
59 -3 9 -44 127 82 95 -2
-63 81 102 -85 42 58 36 -65
-75 -127 26 -57 -22 -70 108 -53

sequential/conv2d/Conv2D i1 [2, 3, 3, 1]
00000000: 067a ebfa 166c f381 ffd4 a2af 7ffa 1a0c
00000010: 2d7b
6 122 -21 -6 22 108 -13 -127
-1 -44 -94 -81 127 -6 26 12
45 123
