0_dev_notebooks/train_outputs/20230813_160343_quarter_average/qt/models/qt_model.tflite (tflite, 8992 bytes, 6 tensors)

sequential/dense/MatMul i1 [1, 1024] scale=0.0066254125 zero_point=0
000000 f0 f3 e9 fc e9 f9 01 0e 11 f2 06 ed 0a 34 04 0d
       -0.1060066 -0.086130366 -0.15238449 -0.02650165 -0.15238449 -0.046377886 0.0066254125 0.09275577 0.112632014 -0.09275577 0.039752476 -0.12588283 0.066254124 0.34452146 0.02650165 0.086130366
000010 ed 12 da 13 e8 19 12 2a 12 30 03 31 07 12 fc f7
       -0.12588283 0.11925743 -0.25176567 0.12588283 -0.1590099 0.16563532 0.11925743 0.27826732 0.11925743 0.3180198 0.019876238 0.32464522 0.046377886 0.11925743 -0.02650165 -0.059628714
000020 2a 01 58 f9 21 10 f1 22 2a f1 f7 ed 12 f1 30 33
       0.27826732 0.0066254125 0.5830363 -0.046377886 0.21863861 0.1060066 -0.099381186 0.22526403 0.27826732 -0.099381186 -0.059628714 -0.12588283 0.11925743 -0.099381186 0.3180198 0.33789605
000030 0b 14 dd 22 00 f0 fe 03 03 0c fd 15 f4 0b f9 fa
       0.07287954 0.13250825 -0.23188944 0.22526403 0.0 -0.1060066 -0.013250825 0.019876238 0.019876238 0.07950495 -0.019876238 0.13913366 -0.07950495 0.07287954 -0.046377886 -0.039752476
000040 ef fb eb 0e f8 fa e7 15 13 f5 f3 f6 13 14 00 08
       -0.112632014 -0.033127062 -0.13913366 0.09275577 -0.0530033 -0.039752476 -0.16563532 0.13913366 0.12588283 -0.07287954 -0.086130366 -0.066254124 0.12588283 0.13250825 0.0 0.0530033
000050 00 03 01 05 f2 38 f7 08 f2 f8 00 02 fa 44 f2 fd
       0.0 0.019876238 0.0066254125 0.033127062 -0.09275577 0.3710231 -0.059628714 0.0530033 -0.09275577 -0.0530033 0.0 0.013250825 -0.039752476 0.45052806 -0.09275577 -0.019876238
000060 fe fb 08 1c 01 14 0b 3f fd 0a 0a 0f f9 e3 fb 13
       -0.013250825 -0.033127062 0.0530033 0.18551154 0.0066254125 0.13250825 0.07287954 0.417401 -0.019876238 0.066254124 0.066254124 0.099381186 -0.046377886 -0.19213696 -0.033127062 0.12588283
000070 fe fc fc c3 02 13 08 13 fe f4 06 18 00 df 08 f1
       -0.013250825 -0.02650165 -0.02650165 -0.40415016 0.013250825 0.12588283 0.0530033 0.12588283 -0.013250825 -0.07950495 0.039752476 0.1590099 0.0 -0.21863861 0.0530033 -0.099381186
000080 03 f7 07 07 26 fb 08 07 04 35 fc 04 19 16 18 3b
       0.019876238 -0.059628714 0.046377886 0.046377886 0.25176567 -0.033127062 0.0530033 0.046377886 0.02650165 0.35114688 -0.02650165 0.02650165 0.16563532 0.14575908 0.1590099 0.39089933
000090 09 f3 19 14 fd 1a f5 14 0d ef 00 0a 0b f2 05 f9
       0.059628714 -0.086130366 0.16563532 0.13250825 -0.019876238 0.17226073 -0.07287954 0.13250825 0.086130366 -0.112632014 0.0 0.066254124 0.07287954 -0.09275577 0.033127062 -0.046377886
0000a0 24 ed 2e 09 1a f2 02 25 fe 16 f9 0b 16 f8 1e 02
       0.23851486 -0.12588283 0.30476898 0.059628714 0.17226073 -0.09275577 0.013250825 0.24514027 -0.013250825 0.14575908 -0.046377886 0.07287954 0.14575908 -0.0530033 0.19876237 0.013250825
0000b0 00 05 f3 02 12 0d f7 21 f0 03 0d f5 09 f8 eb 13
       0.0 0.033127062 -0.086130366 0.013250825 0.11925743 0.086130366 -0.059628714 0.21863861 -0.1060066 0.019876238 0.086130366 -0.07287954 0.059628714 -0.0530033 -0.13913366 0.12588283
0000c0 f3 ef f4 1b ff 1b ff 05 04 f2 00 03 07 2e fd 05
       -0.086130366 -0.112632014 -0.07950495 0.17888613 -0.0066254125 0.17888613 -0.0066254125 0.033127062 0.02650165 -0.09275577 0.0 0.019876238 0.046377886 0.30476898 -0.019876238 0.033127062
0000d0 fe 0e fc 05 04 09 19 de f4 1d 0b 0a f6 0a 05 23
       -0.013250825 0.09275577 -0.02650165 0.033127062 0.02650165 0.059628714 0.16563532 -0.22526403 -0.07950495 0.19213696 0.07287954 0.066254124 -0.066254124 0.066254124 0.033127062 0.23188944
0000e0 fe 16 16 fd 08 da 08 06 05 fd 0d 18 f0 ee 07 f4
       -0.013250825 0.14575908 0.14575908 -0.019876238 0.0530033 -0.25176567 0.0530033 0.039752476 0.033127062 -0.019876238 0.086130366 0.1590099 -0.1060066 -0.11925743 0.046377886 -0.07950495
0000f0 fe 08 0c 02 12 eb f7 eb fa f6 06 f9 fe d7 0b f6
       -0.013250825 0.0530033 0.07950495 0.013250825 0.11925743 -0.13913366 -0.059628714 -0.13913366 -0.039752476 -0.066254124 0.039752476 -0.046377886 -0.013250825 -0.2716419 0.07287954 -0.066254124

sequential/conv2d_4/Conv2D i1 [16, 3, 3, 8]
000000 0e 3e 0b 34 00 fa 21 d5 14 e2 48 ff 15 f2 e0 23
       14 62 11 52 0 -6 33 -43 20 -30 72 -1 21 -14 -32 35
000010 39 f1 13 e7 d2 29 af 09 c9 eb 05 01 f2 54 36 d4
       57 -15 19 -25 -46 41 -81 9 -55 -21 5 1 -14 84 54 -44
000020 3f dd 20 43 0b e0 3d f8 53 d2 7f eb 4f d2 ec 27
       63 -35 32 67 11 -32 61 -8 83 -46 127 -21 79 -46 -20 39
000030 39 1a f4 34 d4 1a 10 2b c2 2a 43 23 d4 06 f4 d8
       57 26 -12 52 -44 26 16 43 -62 42 67 35 -44 6 -12 -40
000040 8e 11 dd f6 df 93 e0 fd e2 26 18 34 0c c2 de e6
       -114 17 -35 -10 -33 -109 -32 -3 -30 38 24 52 12 -62 -34 -26
000050 09 0a 0f 0b 0e 4d 0e 3e d0 cd d2 32 e7 fe 03 e5
       9 10 15 11 14 77 14 62 -48 -51 -46 50 -25 -2 3 -27
000060 19 c2 f1 ed 00 89 fa f4 24 ee 18 fb 51 00 e5 4b
       25 -62 -15 -19 0 -119 -6 -12 36 -18 24 -5 81 0 -27 75
000070 3c 5b 01 7f 12 e7 21 0f 1c d4 e6 d1 e6 10 f6 e3
       60 91 1 127 18 -25 33 15 28 -44 -26 -47 -26 16 -10 -29
000080 d0 e3 f1 3d 10 4e cf 36 d8 f9 08 e2 e5 38 19 f5
       -48 -29 -15 61 16 78 -49 54 -40 -7 8 -30 -27 56 25 -11
000090 29 88 17 46 dc f5 00 2d d1 0c ff 81 23 bc 29 3a
       41 -120 23 70 -36 -11 0 45 -47 12 -1 -127 35 -68 41 58
0000a0 07 ff 11 09 3c 22 21 fb fb 00 e0 e2 2f ed 0d 2e
       7 -1 17 9 60 34 33 -5 -5 0 -32 -30 47 -19 13 46
0000b0 1c fc d9 cf de 5a e5 f9 dc a8 1c ee da 04 6a e3
       28 -4 -39 -49 -34 90 -27 -7 -36 -88 28 -18 -38 4 106 -29
0000c0 1d 5b f5 16 38 12 fb 39 3c bf 3c e9 e0 01 74 17
       29 91 -11 22 56 18 -5 57 60 -65 60 -23 -32 1 116 23
0000d0 e0 bf d9 bc c9 c6 27 d3 b0 e2 06 c1 2b 37 c2 db
       -32 -65 -39 -68 -55 -58 39 -45 -80 -30 6 -63 43 55 -62 -37
0000e0 bf da ad 26 11 43 5c f9 1b 7f 3f 32 a5 45 00 d1
       -65 -38 -83 38 17 67 92 -7 27 127 63 50 -91 69 0 -47
0000f0 f6 a4 c0 cc 11 bc a6 19 64 0e f1 58 33 1f 5d 37
       -10 -92 -64 -52 17 -68 -90 25 100 14 -15 88 51 31 93 55

sequential/conv2d_3/Conv2D i1 [8, 3, 3, 4]
000000 ed 51 d1 ac c4 c5 d1 1d b1 98 bb 81 2d dd 00 50
       -19 81 -47 -84 -60 -59 -47 29 -79 -104 -69 -127 45 -35 0 80
000010 dd cd 0b 1a f2 be 28 ef 09 69 10 42 df 37 5a 39
       -35 -51 11 26 -14 -66 40 -17 9 105 16 66 -33 55 90 57
000020 28 1e ec 07 40 ec 17 39 c3 ab ec 00 40 a9 f1 cf
       40 30 -20 7 64 -20 23 57 -61 -85 -20 0 64 -87 -15 -49
000030 d4 b8 d0 b1 cd d2 50 eb e4 e9 4f 4a d8 96 32 c8
       -44 -72 -48 -79 -51 -46 80 -21 -28 -23 79 74 -40 -106 50 -56
000040 45 93 05 f1 2e 7f ee 64 07 cc e0 e7 09 3d f3 32
       69 -109 5 -15 46 127 -18 100 7 -52 -32 -25 9 61 -13 50
000050 e9 05 10 e1 3d d6 e7 2a 01 5a e5 3e e7 7f 12 0b
       -23 5 16 -31 61 -42 -25 42 1 90 -27 62 -25 127 18 11
000060 09 a6 cd 00 19 54 17 58 cb c0 e4 bf eb ee ee 15
       9 -90 -51 0 25 84 23 88 -53 -64 -28 -65 -21 -18 -18 21
000070 1e 4f e3 25 d7 ab c8 8e 2c 5f 70 55 18 01 0f e3
       30 79 -29 37 -41 -85 -56 -114 44 95 112 85 24 1 15 -29
000080 07 81 b9 af f7 5e 34 6c 01 1e 43 2f d8 9a c9 13
       7 -127 -71 -81 -9 94 52 108 1 30 67 47 -40 -102 -55 19
000090 f5 96 c9 f9 cb 05 d8 f0 0e f5 d3 e9 b1 f5 fb bd
       -11 -106 -55 -7 -53 5 -40 -16 14 -11 -45 -23 -79 -11 -5 -67
0000a0 1a cd 41 1b 4b 7f 73 f4 a3 e1 ef 4e cc f4 5a 1e
       26 -51 65 27 75 127 115 -12 -93 -31 -17 78 -52 -12 90 30
0000b0 4b 6e 52 46 97 b3 06 56 58 f7 6a 3f 30 1f a0 9a
       75 110 82 70 -105 -77 6 86 88 -9 106 63 48 31 -96 -102
0000c0 22 88 c1 23 aa de f6 9c 2b 94 98 b9 57 29 dc 12
       34 -120 -63 35 -86 -34 -10 -100 43 -108 -104 -71 87 41 -36 18
0000d0 e1 ff 7f 79 e5 11 20 22 68 62 7f 53 c9 56 ef 16
       -31 -1 127 121 -27 17 32 34 104 98 127 83 -55 86 -17 22
0000e0 18 13 bc ae 2c e4 ec f0 e4 39 59 f4 1c e0 c6 d1
       24 19 -68 -82 44 -28 -20 -16 -28 57 89 -12 28 -32 -58 -47
0000f0 11 c1 0b 4d 0d b2 cc e7 b1 3f 18 d5 d6 08 0a a2
       17 -63 11 77 13 -78 -52 -25 -79 63 24 -43 -42 8 10 -94

sequential/conv2d_2/Conv2D i1 [4, 3, 3, 2]
000000 06 1c b6 7b 7f 41 06 1a 30 5c ff 35 f3 36 0e a0
       6 28 -74 123 127 65 6 26 48 92 -1 53 -13 54 14 -96
000010 57 6a df ed 53 47 41 d5 7f 47 5c 3d b4 f5 21 13
       87 106 -33 -19 83 71 65 -43 127 71 92 61 -76 -11 33 19
000020 64 d3 ed 13 7e 37 30 17 cd 08 59 b6 18 2d 8c 53
       100 -45 -19 19 126 55 48 23 -51 8 89 -74 24 45 -116 83
000030 7f 20 73 51 01 63 6b ce dc be 7f 44 65 18 22 31
       127 32 115 81 1 99 107 -50 -36 -66 127 68 101 24 34 49
000040 6c f3 f3 13 24 3f 68 54
       108 -13 -13 19 36 63 104 84

sequential/conv2d_1/Conv2D i1 [2, 3, 3, 1]
000000 b0 bf 56 ba bd 7b d5 81 86 bb 5e e9 e3 c9 94 89
       -80 -65 86 -70 -67 123 -43 -127 -122 -69 94 -23 -29 -55 -108 -119
000010 7f 67
       127 103

sequential/conv2d/Conv2D i1 [1, 3, 3, 1] scale=0.005175269 zero_point=0
000000 0a cd 4a a9 df b6 04 7f 0a
       0.051752694 -0.26393872 0.38296992 -0.45024842 -0.17078388 -0.38296992 0.020701077 0.65725917 0.051752694
